agent_action_classifier/emb_nn_model.pt (torch, 112469 bytes, 10 tensors)

net.0.weight f4 [64, 384]
00000000: b998 6a3d 0857 113d a204 34bc 6d87 523d
00000010: 71b7 243c 79d0 d0bb f5be b2bc 0719 4b3d
00000020: 5d4c 923d 5580 09bd 214a 383d 28f4 d5bb
00000030: 757f e73c f7f4 133d fc24 cd3c 8eae b4bb
00000040: 2efe 493d 156b 72bb 1137 3abd 6d04 49bc
00000050: 07ab 8bbb 4958 6b3c eb2c 19bc 2ba0 893d
00000060: 7a40 16bb bc2f cabc f473 efbb b670 babc
00000070: 91b4 30bc f01e 70bd a311 013d 978e 66bd
00000080: 075b 723d 8aa1 d53b 730e 20bd 5073 a43c
00000090: 4bf5 633c 5309 f83b 381d 443c 809a 70bd
000000a0: 81be 1c3d a173 f03c 3e70 793c 00c8 483d
000000b0: 255a 093d 9195 c7bc 5722 a13c c315 5f3c
000000c0: 31b7 00bb 18ca 15bd e155 75bd 2b96 8abc
000000d0: bb6d 0ebd 317f 803d 5998 8f3c 4b43 953c
000000e0: 1998 e73c 31a2 023b 0da9 883c eed4 e6bb
000000f0: a642 093b 55d4 fdbc b16b 313d 993f dcbc
00000100: e772 063c a008 2c3c a054 6a3d 8ddc c2bc
00000110: 030e fabc ae92 40bd b89c 0f3d 2be7 923c
00000120: cb7d 363d 98d7 1dbd 612d 37bd 1d2d 0ebd
00000130: b520 0abc 1af6 33bc c15a 4bbb 1f0d 1b3d
00000140: 9163 97bc 1704 973b 0822 083d fd61 27bc
00000150: 6caf 023d 3b0e 37bc 20b5 443b 5b96 6fbd
00000160: b61e b6bc 34b6 513c 9bd9 54bb 453a 1cbd
00000170: adfb 4d3d 9f13 7f3d 879a e4bc 0602 48bc
00000180: 3bb4 953d 24d5 7fbc 4f20 bfbc 82ea 3dbd
00000190: 082a 11bd dc4f 633c 1416 6d3b 2131 67bd
000001a0: dedf 90bc d892 52bd 99b0 c3bc e0b9 83bd
000001b0: 76c9 4dbd 6267 70bc 657e 523d cf87 f03c
000001c0: f6c2 933c d0b6 53bd 4b92 f0bc efd6 eabc
000001d0: dc40 843c a9b3 26bd cfb9 6b3b 2aa3 0fbd
000001e0: 0747 373c 551c 26bc 278c d2ba f14f 0fbd
000001f0: 4996 f1bc cd5d 2ebd d34a f5bc 1ea9 7bbd
00000200: 25f6 8a3d fd03 6bbc bb85 553d bd13 0e3d
00000210: cc28 74bd 0c25 e53c 900a 133b c365 30bc
00000220: 8ecb 5dbd c26d 96bd c2dd 853c 3503 b0bb
00000230: 254e 043d 3974 f5bc 6cbd 6c3d 218e f2bc
00000240: 0f21 46bc 5fb3 033d ca67 0a3d efbb b33c
00000250: d2c5 4a3d fa72 0dbd 9d36 103c dfd7 11bd
00000260: 3e78 d33c 5cc8 65bd 1dda 913d 123a 81bd
00000270: 2fb4 173c 5b44 88bc f821 b43b 9ad6 a5bc
00000280: cc50 6f3d e55b 943a 0636 703b 8b27 e7bc
00000290: 4ba3 66bc 8a0b e7bc 5d38 10bd 736c 303c
000002a0: 78d6 e63c 68e0 81bb 534c 1bbd 06b2 13bc
000002b0: d24b 283d 2709 8abc 8c96 38bd 79e2 0fbd
000002c0: f623 24bd f694 c13b ae69 2d3d fa96 6abd
000002d0: a928 6d3b 7316 d23c 84d8 a13c f806 3ebc
000002e0: 5038 6f3c db61 b13c d26d 5f3d 1184 4e3b
000002f0: 381b 0d3c e8f5 cabc 0547 b83c c86b a9bc
00000300: 16f3 033d d136 0d3d ce5e 57bc 1eba 5fbc
00000310: 331c a5bc 59bd d2bb 0824 1bbc 89e3 c53c
00000320: 22cb 1dbd 6cd3 f4bc e2e8 1a3d cc97 973c
00000330: c468 4ebc 55f3 0fbd ea1b 21bd a67e 8abd
00000340: 8721 dabc 8754 c33c d0a8 093d 553b 243d
00000350: 5475 5abd 9638 e4bc ad44 5abc 2035 833d
00000360: 6cc9 933c 0e39 f8bc d106 403b e686 06bc
00000370: 313e cbbc ab99 033d beb4 3bbd d79b 27bc
00000380: 3b0a 20bd b6ea 143d 8e0a 5c3c 13ce b43c
00000390: c029 36bd 9ab7 4abd 1830 8bbc b6d6 323d
000003a0: 9efc e33c 28ad 443d e396 153c 1914 2fbc
000003b0: 0c1a fdbb 1af1 dbbc 0a56 29bd c7a9 2dbd
000003c0: 5df5 a73c bf96 12bd cb94 34bc 850b 313a
000003d0: e926 12bc d45a 0abd 5c97 cfbc 2f90 243c
000003e0: d628 ccbc aab7 4f3d 2ac0 c2bc 9c4a 15bd
000003f0: dea7 1b3c 3b88 f7bc 4a65 3fbb 08cf 60bd
0.057274554 0.03548339 -0.010987433 0.051398683 0.010053501 -0.006372508 -0.021819571 0.049584415
0.071434714 -0.033569653 0.04499257 -0.00652935 0.028259018 0.03612229 0.02504205 -0.0055139726
0.04931467 -0.0036990095 -0.04546267 -0.012269122 -0.0042623314 0.014364311 -0.009349088 0.06720003
-0.0022926615 -0.024680965 -0.007307524 -0.022758823 -0.010785238 -0.058623254 0.03151096 -0.056288328
0.05916884 0.006519501 -0.03907628 0.020074517 0.013913463 0.007569471 0.011969857 -0.058741093
0.038267616 0.029352011 0.0152245145 0.04901886 0.033533234 -0.024363311 0.019669695 0.013616028
-0.001964044 -0.036569685 -0.059896354 -0.016917309 -0.034772616 0.0627426 0.0175287 0.018220564
0.028270768 0.00199331 0.016682172 -0.007044426 0.0020944267 -0.030985037 0.043315593 -0.026885794
0.008206106 0.010500103 0.05720961 -0.023786807 -0.03052426 -0.047014885 0.035061568 0.017932495
0.04455356 -0.038535684 -0.04472101 -0.034710992 -0.0084306495 -0.010983968 -0.0031029435 0.03785431
-0.018480094 0.004608642 0.03323558 -0.010216233 0.031905577 -0.011172826 0.0030015185 -0.058493
-0.022231441 0.012799788 -0.0032478336 -0.038141508 0.050288845 0.06227457 -0.027905716 -0.012207514
0.07309767 -0.0156147815 -0.023330836 -0.046366222 -0.035440475 0.01387402 0.003617649 -0.056443337
-0.017684873 -0.051409572 -0.02388792 -0.06431937 -0.050240956 -0.014673086 0.05139007 0.029361634
0.0180373 -0.051688015 -0.029366633 -0.028666941 0.016144209 -0.04069868 0.0035968905 -0.035067715
0.011186368 -0.010138591 -0.0016063497 -0.034988347 -0.029490607 -0.042569924 -0.029942906 -0.06144058
0.067852296 -0.014344213 0.05212949 0.034686793 -0.05960922 0.027971767 0.0022436716 -0.010766449
-0.054149203 -0.073451534 0.016341094 -0.005371476 0.032301087 -0.029962646 0.057797834 -0.029608788
-0.012092843 0.032153483 0.033790387 0.0219402 0.049505062 -0.03453348 0.008802083 -0.03560626
0.025814172 -0.05609928 0.0712168 -0.06309904 0.009259268 -0.016634157 0.0054972135 -0.020243932
0.058426663 0.0011318891 0.0036653294 -0.028217098 -0.014077018 -0.028203744 -0.035210002 0.010768044
0.028178439 -0.003963519 -0.037914585 -0.009014612 0.041087933 -0.016850067 -0.045065448 -0.03512809
-0.040073358 0.00590765 0.042337112 -0.05727289 0.0036187565 0.02564547 0.019756563 -0.011598341
0.014600828 0.021653106 0.054548092 0.0031511823 0.0086124465 -0.02477546 0.022494802 -0.020681277
0.032214247 0.034476105 -0.013145162 -0.013655214 -0.020155048 -0.0064312634 -0.00946904 0.024156349
-0.0385238 -0.02988597 0.03781975 0.018505 -0.01259822 -0.03514417 -0.03933326 -0.067624375
-0.026627315 0.023844017 0.033608258 0.040095646 -0.05333455 -0.027859014 -0.013322038 0.06406617
0.018040381 -0.030300643 0.0029300938 -0.008210873 -0.024809929 0.03212897 -0.045826666 -0.010230026
-0.039072257 0.03635665 0.013430251 0.02207092 -0.04447341 -0.049491502 -0.016990706 0.043661796
0.027830418 0.048016697 0.0091302125 -0.010685944 -0.0077240523 -0.026848365 -0.04134182 -0.04239824
0.02050274 -0.035788294 -0.011021803 0.00067537307 -0.00892041 -0.033778027 -0.025340728 0.010044142
-0.024921816 0.050712265 -0.023773272 -0.036448106 0.009500472 -0.030216327 -0.002920466 -0.05488494

net.0.bias f4 [64]
00000000: b3bb 1c3d f38b febc 26c0 203d adb9 c2bc
00000010: f785 a1bb b845 be3a df29 3cbd 980c c13c
00000020: b586 14bd 773b 1f3a fc15 e3bc 4300 093d
00000030: 9468 4c3c 0a27 9abc 4719 23bd 89e1 033c
00000040: 38e6 e03c faa2 3fbd 50ca 02bc a733 8ebc
00000050: a447 e33b b824 62bc a1d6 5abd 8cfa 383c
00000060: 8d9e 923c 316e 8a3c 7a9f 203d e5b1 e73c
00000070: fb29 11bd baa7 343d 8366 02bd b2e7 1d3d
00000080: 8546 52bd 08e6 bdbc 35c3 03bd 9b6a ad3c
00000090: c39f 46bc 443f 053d 1798 8fbc 947b 76bc
000000a0: 6244 edbc c5a6 11bb 8dc0 cbbc d8b7 afbc
000000b0: eb83 cbbc b79f 2e3d fbb5 2c3d 9509 56bc
000000c0: bea1 513d 02e3 51bc f28c 13bc 47fe 2cbd
000000d0: b557 bcbc a91f bebc c5ad 8fbc cf99 e2bc
000000e0: 2ed6 81bc f921 f7bc 4641 9dbc 0726 f53c
000000f0: 5322 17bd 264e 1fbd 1ada 61bc 4993 283d
0.03826494 -0.031072592 0.039245747 -0.023770178 -0.0049293 0.0014516627 -0.04593837 0.023565575
-0.03626128 0.00060742296 -0.027720444 0.033447515 0.012476105 -0.018817443 -0.03981903 0.008049377
0.027453527 -0.046786286 -0.007982805 -0.017358614 0.0069360305 -0.0138027 -0.053427342 0.011290204
0.017897869 0.016898246 0.03921459 0.028283069 -0.035440426 0.04410527 -0.031836044 0.03855104
-0.051336784 -0.023180977 -0.032168586 0.021168998 -0.012123051 0.032531038 -0.017528577 -0.015044112
-0.028963272 -0.0022224647 -0.024872089 -0.021449968 -0.024843177 0.042632785 0.042165738 -0.013063808
0.05117964 -0.012810471 -0.009005772 -0.042234685 -0.02299104 -0.023208456 -0.017538914 -0.027661232
-0.0158492 -0.030167567 -0.019196164 0.02992536 -0.03689797 -0.038892888 -0.01378491 0.041156087

net.1.weight f4 [64]
00000000: 9132 803f 9ec7 7c3f 3224 7d3f 2053 7a3f
00000010: 1f71 813f 70a8 823f 7648 823f 07ea 7b3f
00000020: 4e8c 7c3f 7703 7c3f 5150 803f 1862 823f
00000030: 6590 7e3f 5403 7c3f 34fd 813f 0f5c 793f
00000040: 57dc 7f3f a65b 7d3f 24e2 823f 992d 833f
00000050: b344 7f3f c6b2 813f 5083 813f 85e4 7b3f
00000060: 8bc3 7f3f ee76 7d3f 38f1 7d3f 4b29 7c3f
00000070: f054 833f 176e 7b3f 38e0 7a3f f13c 7f3f
00000080: 2b8e 823f 7270 7f3f 7723 7d3f 466c 823f
00000090: 7d86 813f a3c3 7a3f df68 7e3f 0c99 813f
000000a0: 8dec 813f eae8 803f 04d0 783f 1030 783f
000000b0: 7af1 743f b867 7e3f 78b2 7c3f 43ac 7b3f
000000c0: 02bf 803f 8fe5 7d3f 597c 803f 6e66 7f3f
000000d0: 2dc5 803f 8d28 803f cc33 813f 44cf 7c3f
000000e0: b442 7e3f 19dc 823f 72d2 813f 2e4f 7e3f
000000f0: b010 803f 84ae 823f 745c 803f 3078 7f3f
1.0015432 0.9874209 0.98883355 0.9778309 1.0112647 1.0207653 1.0178363 0.9840397
0.9865159 0.98442787 1.0024511 1.0186186 0.9943908 0.9844258 1.0155396 0.97406095
0.99945587 0.9896797 1.0225263 1.024829 0.997142 1.0132682 1.0118198 0.9839557
0.9990775 0.990096 0.99196196 0.9850051 1.0260296 0.9821486 0.9799838 0.99702364
1.0199636 0.9978095 0.9888224 1.0189292 1.0119168 0.9795477 0.9937877 1.0124831
1.0150315 1.007108 0.97192407 0.9694834 0.95680964 0.9937701 0.9870982 0.98309726
1.0058291 0.99178404 1.0037948 0.9976567 1.0060173 1.0012375 1.0093932 0.9875376
0.9932053 1.0223418 1.0142348 0.9933957 1.0005093 1.0209508 1.0028214 0.99792767

net.1.bias f4 [64]
00000000: 8770 833a 30bd 1bbb 8645 23bc 84e8 3dbc
00000010: 3029 313b ab5b 15ba 72b6 91bc a6ec d4bc
00000020: 2fe6 183c 208d aebc 0a14 49bc d4d3 2b3c
00000030: d8ef adbb 2e11 26bc 1b1a e2bc 84ff 9ebc
00000040: 431a 473b 8185 91bb b554 c33a f19f 3a3a
00000050: 8f7c c33b 5200 073b d50e 44bc 1340 02bc
00000060: 8749 1ebc 0535 82bc 871d 42bb 7b25 f4bb
00000070: fa7a cdbc 0e56 16bc 9054 1fbb 3b64 3ebc
00000080: 4ef3 d0bc b571 ea3a d7cc 293b e574 7b3c
00000090: 9b29 bc3b 433f d7bc b477 98bc 38af 223c
000000a0: 61af 41ba 81e9 e03b 5c7b 51bb 6940 9abc
000000b0: 497c 7dbc 236f cabb bedd 3ebc 9d71 003c
000000c0: f9db a23b 820a 1ebc c313 0a3b 4057 8d3b
000000d0: e0ee da3b 8c80 69bc 7721 2d3c ac59 b73a
000000e0: 9237 9fbc bbb2 63bc 2842 3f3c 53b5 32bc
000000f0: 3b61 debb d91f 83bc 2b80 783b d135 7a3a
0.0010028043 -0.0023763888 -0.009965306 -0.011591081 0.0027032606 -0.00056975585 -0.017787192 -0.025991749
0.009332224 -0.021307528 -0.012272844 0.0104875155 -0.0053081326 -0.010135932 -0.027600339 -0.019408949
0.0030380643 -0.0044409637 0.0014902564 0.000711917 0.0059657763 0.0020599556 -0.011966427 -0.007949847
-0.009661085 -0.015894422 -0.002961965 -0.007450757 -0.025083054 -0.0091757905 -0.0024311878 -0.0116205765
-0.025506642 0.001788667 0.0025909448 0.015347694 0.0057422644 -0.026275283 -0.018611766 0.009929471
-0.0007388499 0.0068637733 -0.0031964397 -0.018829541 -0.015471526 -0.0061777993 -0.011649547 0.0078395875
0.0049700704 -0.00964606 0.0021068908 0.0043133795 0.006681308 -0.014251839 0.010567061 0.0013988516
-0.019435678 -0.013897593 0.011673488 -0.010907489 -0.006786493 -0.016006397 0.003791819 0.00095447624

net.4.weight f4 [32, 64]
00000000: c9a0 d03c 880c 90bd 8404 aebd 017a d33c
00000010: eeda 0a3e 3ef3 a8bd b3c4 34bd 40c4 a5bd
00000020: 31d1 e0bc bf6a ca39 0153 a9bd b2da ce3d
00000030: edc1 703c af5f d9bd 6505 b53d 6f1d 13bd
00000040: f36a b33c ba1b 6e3b 05b4 443d d727 c8bb
00000050: ed37 fd3d cfdb 863c 8110 74bd 0594 cb3d
00000060: 8bf6 923d e332 94bc 2ef9 d13d a0c1 043d
00000070: 5a81 223d 199d 8ebd d578 1cbe d253 7d3d
00000080: bd08 8bbd dbd9 6c3c 2936 eebd c978 2ebb
00000090: 6c41 f5bd 3de2 9fbd 7392 51bc aa7b d7bd
000000a0: 015f 3b3d 3bbf 793b 4078 ec3d 5df3 13bc
000000b0: 51c6 ffbc 31e9 d9bd 801a 3f3b 0b17 09bc
000000c0: 2111 183d c2a5 98bd a637 ae3d cf40 8abc
000000d0: c993 0c3e 7cc6 553d c99a 95bd 45af 4e3c
000000e0: 3fc1 5dbc 010d 99bd 6253 813d e186 c33c
000000f0: a48b cf3d b619 ce3c b310 d13d 9f17 c13d
00000100: 4a3c ef3c a7e0 7dbd cd4f 663d 2e5b 913b
00000110: 0140 27bd d4e1 e1bd 9539 b0bd 39a4 9e3d
00000120: 134b 703d a64b 7a3d d93f d9bd b6d3 82bd
00000130: fca5 53bd 5f4f ccbd 5aaa 4b3d 842b a33c
00000140: 2035 7cbd 7db5 993c 4dde acbb 968e f93c
00000150: 0eb5 e1bd da64 663b ca2a d53d 4b4c c53d
00000160: b570 cc3d 8170 28bd b3c4 efbd 309b cf3d
00000170: c4d9 ab3c a796 813d 188c 303e 86ea 0e3d
00000180: 4344 dabd b0a6 eb3d de62 f7bc 9873 88bd
00000190: 9c89 cc3d 9e62 dcbb 62e0 abba 9b4a 983c
000001a0: 1ecd b13d 3e18 d33b b5e7 b53d d99c 08bd
000001b0: 13c3 17bd d2c5 95bc 3d54 63bd ec8f 61bd
000001c0: 43e0 61bd f089 65bd 9f76 d73d 788a d83b
000001d0: 95f2 a73d 7592 df3d 5baa 5c3d fd78 3a3d
000001e0: d61d dabd 8024 153c dfa0 ae3d 02b6 8dbc
000001f0: 6980 b7bd eb34 55bc 30a6 a0bd f41b b6bd
00000200: bbc9 833d de4c 883c 787a 283d 9745 e5bd
00000210: 928b 553b 6434 043e ebd4 c93c 2723 d73d
00000220: c3f5 42bd 5f06 18bb c6b7 8b3d 481c c03b
00000230: d8a3 753d ae15 f03d 384d dd3d d2b8 203d
00000240: ab37 eb3d bf4f fa3d 79ad 19be 13ca 2f3d
00000250: 8c5d a23d 92c1 a43d 9292 84bd 879b b53d
00000260: 927b 0f3c c224 1c3d b125 e5bd aef1 a93d
00000270: 22b2 b4bd a81f 413d e78b ab3d 3dd0 893d
00000280: 1076 19bb 1bc9 54bd 31d1 b3bd 2caf 82bd
00000290: 3b26 9cbd 73ba 8b3d 701b b53d d4d0 5bbd
000002a0: 6688 4a3c 618b 363b 6cec 02bd eeb2 8c3d
000002b0: 827e 87bd 6a93 703c a15a 563c effb b2bb
000002c0: a881 513d 8a77 c53d 98a3 693d fa61 4ebd
000002d0: 4598 1b3d a574 9c3d 670d 9bbd 4773 9bbd
000002e0: 26a2 873d 2e58 353c 02c4 db3d 0bfa 9d3c
000002f0: 9379 7e3d 9868 923d 0456 d33d 04e9 3bbd
00000300: 2c3a bb3d 2312 7ebd 7347 9a3d 094e e7bd
00000310: 7d65 f73d 8672 813d f77b 853d ba7f a53d
00000320: 9bfe 30bd e23a 69bb 6ef0 c9bd 83e2 5e3d
00000330: d5a1 f6bc ea51 833b 2659 3cbd 6e63 a93d
00000340: ca01 c53d 03dd 0cbe 9c09 eebd cecd 95bd
00000350: f7f3 9f3c 0179 60bb 3ef6 b83d d974 fa3c
00000360: cf04 88bc eb6f e03d a201 62bc 7632 cb3d
00000370: 6f5b ffbc c6a6 debc 3040 6abc a621 82bd
00000380: 8016 d83d 73c4 1abc fe02 b53d 7dff 243e
00000390: 02a4 24bc 3c74 5dba 19a9 eabc 3d2b bcbd
000003a0: 11a6 a03c 2169 c9bd d6cd fc3d 03f0 293d
000003b0: 59ad b9b9 15cb ca3d f91d 123d 20fd dc3d
000003c0: 49a8 33bd f7ff d8bd 82ab 71bd 40de aa3d
000003d0: b0a1 ca3d d74c 80bd 2dde 65bd 91c7 863d
000003e0: 1887 09be a78e bf3c 7f02 dd3c 788f 6c3d
000003f0: c112 0abe 74c2 d33b 0711 1a3d 4885 f23d
0.025467293 -0.0703364 -0.08496955 0.025815012 0.13560078 -0.0824952 -0.0441329 -0.08094072
-0.0274435 0.00038607974 -0.08267785 0.101003066 0.014694673 -0.10613953 0.088389196 -0.035916742
0.021901583 0.0036332444 0.048023243 -0.006108265 0.123641826 0.016462235 -0.05958605 0.09940342
0.071759306 -0.01809067 0.102526054 0.032411218 0.03967414 -0.06963558 -0.15280469 0.061847515
-0.06788776 0.014456238 -0.11631424 -0.0026622287 -0.11975369 -0.078068234 -0.012791264 -0.10521634
0.0457449 0.0038108367 0.11546373 -0.00903019 -0.031222494 -0.10640181 0.0029160082 -0.00836731
0.03712571 -0.07453491 0.08506708 -0.016876606 0.1372825 0.052191243 -0.073049136 0.01261503
-0.013534843 -0.074731834 0.06314732 0.023868026 0.10134056 0.025158744 0.10208263 0.094283335
0.029203553 -0.061981823 0.056228448 0.0044359183 -0.040832523 -0.110294014 -0.08604733 0.07746167
0.058665346 0.0611073 -0.10607881 -0.06388037 -0.051671967 -0.09976076 0.049723007 0.01991821
-0.0615741 0.018763298 -0.0052755238 0.030463498 -0.110208616 0.0035155327 0.10408552 0.09633692
0.09982435 -0.041122917 -0.11707439 0.101370215 0.020977862 0.06327563 0.17240942 0.034891628
-0.10657551 0.115064025 -0.03019851 -0.06662673 0.099871844 -0.0067256233 -0.0013113136 0.018590262
0.08681701 0.006442099 0.08882085 -0.033352707 -0.03705127 -0.018282805 -0.055500258 -0.055068895
-0.055145513 -0.05603975 0.10520672 0.0066083036 0.08200566 0.10916606 0.0538734 0.04552554
-0.10650222 0.009102941 0.085267775 -0.017298702 -0.08960039 -0.013013105 -0.07844198 -0.088920504
0.064349614 0.016638216 0.04113242 -0.11194914 0.003258441 0.1291061 0.02463766 0.10504752
-0.047597658 -0.0023197157 0.068221614 0.0058627464 0.059970707 0.11722885 0.10805744 0.03923876
0.11485227 0.122222416 -0.15007581 0.042917322 0.07927999 0.08044733 -0.064732686 0.08867555
0.008757489 0.038120992 -0.1118883 0.0829805 -0.08823039 0.04714933 0.08376294 0.067291714
-0.0023416318 -0.0519496 -0.087801345 -0.06381068 -0.076244794 0.06822672 0.08843124 -0.05366595
0.0123616215 0.0027854072 -0.03196375 0.06870066 -0.06615926 0.014683584 0.013083131 -0.0054621617
0.05114904 0.09641941 0.05704078 -0.050386406 0.037987012 0.07639436 -0.07570916 -0.07590347
0.06622724 0.011068387 0.10730745 0.019284269 0.06212766 0.07148856 0.103191406 -0.045876518
0.09141955 -0.062029015 0.07533159 -0.11294181 0.12079904 0.06320672 0.06517785 0.080810025
-0.04321156 -0.0035588075 -0.098603114 0.054415237 -0.030106464 0.0040075677 -0.045983456 0.08270918
0.09619482 -0.13756184 -0.116229266 -0.07314645 0.019525511 -0.0034251811 0.09031342 0.030573295
-0.016603855 0.10958847 -0.013794335 0.09921734 -0.031171529 -0.027179133 -0.01429753 -0.06354074
0.105511665 -0.009446251 0.08838461 0.16113086 -0.010048868 -0.0008447801 -0.028645085 -0.091879345
0.019610437 -0.09834505 0.123439476 0.04148866 -0.00035415104 0.09902016 0.035673115 0.10790467
-0.04386166 -0.105956964 -0.059001453 0.08343172 0.09894121 -0.06264656 -0.056120086 0.06581033
-0.1343044 0.023383452 0.02697873 0.05775401 -0.13483717 0.0064623896 0.037613895 0.11841828

net.4.bias f4 [32]
00000000: a9d1 883d bd48 e93d 9062 d63c da43 a2bd
00000010: 901a aebd ca36 323d f2e1 153d feeb f13c
00000020: 7112 85bd af62 acbd 07cb debc 1d1c 373d
00000030: de02 613d be33 6abc e439 353d 7303 a7bd
00000040: 3b87 a1bd 4313 4e3d d09a e43d bfcf 6dbd
00000050: 526b b7bd ff13 103d 157a b9bc 1f18 e0bd
00000060: 9500 dfbd dc2c f7bd 1d10 81bd c26e 273c
00000070: e754 9abc 7401 35bd bffd afbd 444a 973d
0.066806145 0.11390827 0.026170045 -0.07923098 -0.0850116 0.043509282 0.03659243 0.029531475
-0.06497658 -0.0841726 -0.02719642 0.044704545 0.054934375 -0.014294563 0.044244662 -0.08154955
-0.07887121 0.05031134 0.11162341 -0.05805945 -0.089560166 0.03517532 -0.022641221 -0.10942101
-0.10888783 -0.12069103 -0.063019015 0.010219278 -0.018839313 -0.04419084 -0.0859332 0.07387212

net.5.weight f4 [32]
00000000: 9c8a 823f a407 863f 3eae 823f 5add 853f
00000010: 964c 843f 1bb9 873f 2b5b 803f 4a6b 843f
00000020: fbca 813f 7f08 803f cb4b 7f3f eca8 7d3f
00000030: 3630 843f 9a69 803f 270f 803f 7f25 823f
00000040: 2e5b 843f 0499 853f fd61 823f 68e0 843f
00000050: 5af5 783f a601 7f3f 84f7 793f 51c8 7e3f
00000060: 8aa9 833f 032b 813f 1c18 823f 09aa 7f3f
00000070: 632c 823f 4fe9 7e3f 746f 823f 1716 853f
1.019855 1.0471082 1.0209424 1.0458176 1.0335872 1.0603365 1.0027822 1.0345242
1.014007 1.0002593 0.99725026 0.9908588 1.0327213 1.0032227 1.0004624 1.0167693
1.0340326 1.0437322 1.0186154 1.0380983 0.97249377 0.9961189 0.97643304 0.9952441
1.0286114 1.0091251 1.0163608 0.9986883 1.0169796 0.9957475 1.0190263 1.0397366

net.5.bias f4 [32]
00000000: 8a1e a83c c3ac d73c 6a28 923c ce89 283d
00000010: 469b 803c 4980 613d 9b82 253d 4bae 843c
00000020: 3aef 043d 237d eb3b 9484 8cbc 2cb8 e7bc
00000030: 56f9 5e3c 4f99 3abc 2dc6 89bb ebd3 f63c
00000040: 57bf b33c f76a e03c 7330 6b3c 931c 043d
00000050: 40f7 91bc 576b e63a 0141 88bc ca42 87bb
00000060: 03df 103d bf6c 7bbc aaa8 c23c 28b1 aa3c
00000070: 6ec3 ae3c d2c7 173b 65fa 863c 7087 fb3c
0.020522375 0.026327496 0.017841537 0.041147046 0.01569904 0.055053983 0.04040776 0.01619639
0.032454707 0.0071865483 -0.017153062 -0.028286062 0.013609251 -0.011389091 -0.0042045326 0.030130347
0.021941824 0.027394755 0.014354813 0.032253813 -0.017818093 0.0017579597 -0.016632559 -0.004127835
0.03536893 -0.015345751 0.023762066 0.020836428 0.021333423 0.0023159874 0.01647682 0.03070423

net.8.weight f4 [3, 32]
00000000: f3b6 263e acf9 b3bc 0f2c 973d 328c 543e
00000010: f423 08be a5b6 7cbd 2c72 78bd e2be c7bd
00000020: 7a88 223c bd9a 68bd ebd9 33be 0601 f93d
00000030: 8b1a 4dbe 178f a53d 9c15 863d 6516 913d
00000040: 5824 5c3e e30a 2c3e 3738 2d3e 23d7 c93d
00000050: 819a 86bd 029a c7bc 60c4 76bd 9120 0cbe
00000060: 10b8 b93c 5ba9 a2bd f8d2 f63c 4dcc 38bd
00000070: 1de9 02be 543a c43c b074 21be 6982 abbd
00000080: b9b3 debd dd0b 463e db50 babd 5fdd 19be
00000090: a97b 2bbb 340d 1e3e ac82 353d 511d 3e3e
000000a0: 6429 e8bc 8861 633d 62fc efbd f6e8 c33c
000000b0: f0ef f43d 0ffc 63bd 2448 7abd ecb3 33bc
000000c0: 2f58 1ebe ac1a d1bd 733c 57be 3712 d5bd
000000d0: 3e5e 55bc 5366 8cbc 355a eebc c026 b8bc
000000e0: bd9b 50bc b4d2 153e b410 13bd df31 c73d
000000f0: f536 65bd 4a03 833d 1cbe e23c 35f8 6f3d
00000100: bad3 1bbe 7e49 5d3d 8a58 d13c 90f6 2fbe
00000110: 04ef 31be b6d4 9cbd 0d5a 03be 093b 53be
00000120: 2354 b8bc 79ba dcbd 339d 03be 56cf 3d3e
00000130: f4f1 533d 02a4 653e 3e64 d83d 334d 18be
00000140: b095 093e 7e47 65bc f174 af3d 6701 22be
00000150: faa7 8d3c ac57 083e 4f9c 34bd 6bf7 ed3c
00000160: 435b f5bd 7c56 a03d 24a1 a6bd 144a c23d
00000170: 551e e2bd a62b 04b9 6d11 6b3e 8e5b dbbd
0.16280727 -0.021969639 0.073814504 0.20756605 -0.13294965 -0.06169762 -0.060655758 -0.09753205
0.009920234 -0.056788195 -0.17563598 0.12158398 -0.20029657 0.08083933 0.065470904 0.070843495
0.21498239 0.16801028 0.16915976 0.09855487 -0.06572438 -0.024365429 -0.06024587 -0.13684298
0.022670776 -0.07942458 0.030129895 -0.04511671 -0.12784238 0.023953594 -0.15767169 -0.08374483
-0.10874123 0.19340463 -0.09097453 -0.15025853 -0.0026166236 0.15434724 0.04431407 0.18565871
-0.02834005 0.055512935 -0.1171806 0.023914795 0.11959827 -0.055660304 -0.061103955 -0.01096819
-0.15463327 -0.102101654 -0.21019153 -0.10403865 -0.013022957 -0.017138636 -0.029095748 -0.022479415
-0.012732443 0.14631158 -0.0359046 0.09726309 -0.055960614 0.06397112 0.027678542 0.058586318
-0.15217486 0.054025166 0.025554914 -0.171839 -0.17376333 -0.07657759 -0.1282732 -0.20627989
-0.022501057 -0.10777754 -0.12852935 0.18536124 0.051744416 0.22425845 0.10565995 -0.14873199
0.13436007 -0.013994096 0.08567227 -0.15820847 0.017292012 0.13314694 -0.04409438 0.029048642
-0.119802974 0.078289956 -0.08136204 0.094867855 -0.110409416 -0.00012604761 0.22955866 -0.10710822

net.8.bias f4 [3]
00000000: 0e5e dbbd 2a58 d33d f36c 27be
-0.10711299 0.1031955 -0.16350155
