agent_action_guard/action_classifier_model.pt (torch, 237189 bytes, 10 tensors)

net.0.weight f4 [128, 384]
00000000: 22b6 273d 0187 383d 1a8e 81bb d123 613d
00000010: b943 10bc faca d73c 456f f2bc 6ceb e53c
00000020: 3b0a 5b3d ccc2 14bd f3da f83c 337e 4b3c
00000030: 4477 df3c bc1b ff3c 230d f53c 653a bcbc
00000040: 0d06 433d bf8b af3c 184f 8abc dde0 1fbc
00000050: a6a7 80bb a8cc 64bc e172 f8bc 2abe b13c
00000060: 7560 33bd 9604 1dbc 53ac 04bc c15b 7cbc
00000070: c04b 2d3c 6baf 69bd d801 f93c 2b60 85bd
00000080: 52a6 3c3d 0cf0 d13b d7f3 51bc d502 4e3d
00000090: 16a4 5f3c 8960 463d 6a32 443c f874 a3bc
000000a0: e006 a7bb 8e53 a8bc d4b5 143d 73b0 8a3d
000000b0: 7811 433d dd26 dfbc 0eb9 e93c 4872 dc3a
000000c0: 8102 c13b e2e1 0abd 8fb8 33bd 01f8 c0bc
000000d0: 515d 49bd 0582 c03c 52ac b73c dc6f 1c3d
000000e0: 7dfc 4a3c 9bd2 d4ba 0ea0 3c3d b0a9 01bd
000000f0: cd8d d3bb 1b6b ffbc 3d83 903c 376c 96bc
00000100: a290 f03c 002b fdbc 6de0 f13c 5e23 a4bc
00000110: 2c56 26bd 6175 48bd 068a 9b3c 62db c03c
00000120: 7903 7b3d 9967 8dbd 0068 49bd 2612 4abd
00000130: 2ba5 85bc df62 513c a267 c63c 465a 163d
00000140: 638e d2bc 1ca3 e1bc 8a9d 8c3c 37f7 febc
00000150: 03b7 2b3d fe31 8dbb baf7 a03c 7f27 50bd
00000160: 01bb b9bc 6661 af3c 8046 163d ee8d 84bb
00000170: db95 d83b 6935 343d 8aee d1bc 61d7 b4bc
00000180: cff1 653d 76f6 e4bc 38ed 23bd b691 70bd
00000190: f4da d0bc 6b42 813c 96b3 323c 8202 f5bc
000001a0: bed4 57bc 62ff 99bc bf32 7abd c9cb a6bc
000001b0: 2c1b 3dbd 4021 20bd 12d1 5b3d 0bb7 003d
000001c0: cd51 033c 0cb8 0abd 5ef7 7dbd 3fa5 5dbc
000001d0: bac3 7e3b f7b6 6fbd 9e2e 91bb 5c08 05bc
000001e0: eb1b 4a3c 5e5f 02bd d19c 963c a27d 55bd
000001f0: e4fd 45bd 1dd1 80bc 4bd2 e7ba edda 60bd
00000200: e373 fe3c 619f b3bc a53b 3b3d 371c b03c
00000210: b6db 40bd a7df af3c bed4 bdbb 9eb0 01bc
00000220: 005b 32bd 4b95 88bd 9f8c a7bc e38b 5cbc
00000230: 2427 303d 992b 21bd 9fcd f53c d05d 13bd
00000240: b753 9cbc 98a9 383c 5754 343d 86c4 d53c
00000250: 7373 0e3d 7c06 43bd c805 1fba 0261 fcbc
00000260: 1b3b 16bb c6b8 42bd fecb 8d3d 7ea0 d8bc
00000270: 9b48 e53b 7770 373b 4d73 cc3c b353 a6bc
00000280: 4fb6 033d 7608 ba3c a059 ecba bb61 75bd
00000290: b5cb ce3b cb08 233c 7b55 2cbc 0760 3b3d
000002a0: 1435 463c b1eb 97bc 7da8 e6bc d760 8ebc
000002b0: 9f93 393d aecc 04bc 37c6 09bc d577 babc
000002c0: 0151 0dbd d8cf 10bc f7cb 473d 4795 2bbd
000002d0: dd18 2d3c ce27 903c 9906 913c 2f6b 9dbc
000002e0: 070e 273d 321b 053d 8cab 0a3d 6ba4 90bc
000002f0: 17e9 5cbc 80c1 99bb b547 163b 01ad 71bb
00000300: 05fd 613d 8a63 7a3d 5303 4fbc ea03 87bb
00000310: b541 10bc a818 58bb b505 683a cfb1 043c
00000320: c27d 54bc b9d9 d7bc 0bbd 753d 7b21 993c
00000330: 86bb dc3a 2d26 c0bc e187 13bd 89d8 4bbd
00000340: d450 ddbb 223c 433c 5455 023d 57d8 893c
00000350: 38e4 03bd 6be0 50bd dd5d b5bb 7d74 3f3d
00000360: bbc6 f43c 8e3b e2bc 3c80 aa3b ac00 d5bc
00000370: c895 98bc 0718 193d 39b6 b9bc d79b 27bc
00000380: 2173 bbbc a63c a63c 4256 693d 46c0 de3c
00000390: 64de aebc e8c6 30bd cf05 0dbd 12f4 c43c
000003a0: 9869 a03c 4cd2 2b3d dd1c 693c 70ac 8ebb
000003b0: 2aff ebbb c548 03bd 64fb 05bd 764d 3dbd
000003c0: de45 913b afae 81bc e956 d63a af0d acbc
000003d0: 93fe 05bb f987 05bd eb8f 0cbd dd2a 85bc
000003e0: fbe9 a4bc 3738 ab3c d31e b4bb c196 97bc
000003f0: d2dc a8bb f5d9 9ebc 5a82 b7bb e4d7 76bd
0.04094518 0.045050625 -0.0039537074 0.054965798 -0.008805209 0.026341904 -0.029594073 0.02806636
0.053476553 -0.036318585 0.03037784 0.012420225 0.02727855 0.031141154 0.02991349 -0.022977063
0.047613192 0.02142894 -0.016883418 -0.009758201 -0.0039262353 -0.0139648095 -0.030328216 0.021697123
-0.04379316 -0.009583613 -0.008097726 -0.015402735 0.010577142 -0.057052057 0.030396387 -0.06512483
0.046057053 0.0064067896 -0.012814484 0.05029567 0.013649961 0.048431907 0.01197491 -0.019953236
-0.005097255 -0.020547654 0.036306217 0.06771936 0.04762408 -0.027240211 0.028530624 0.0016818726
0.005890191 -0.033906825 -0.04387718 -0.023555757 -0.04916126 0.023499498 0.022421036 0.038192615
0.012389299 -0.0016237082 0.046051078 -0.031655967 -0.006456113 -0.031179002 0.017640704 -0.018362148
0.029365841 -0.030904293 0.02952596 -0.020036396 -0.040609524 -0.048940066 0.018986713 0.02354211
0.06128261 -0.06904525 -0.049171448 -0.049333714 -0.01631411 0.01277992 0.024219338 0.036707185
-0.02570266 -0.027543597 0.017164964 -0.03112374 0.04192258 -0.004308938 0.019649375 -0.050818916
-0.022672178 0.021408748 0.036688328 -0.0040452396 0.006609661 0.04399625 -0.02562644 -0.022075357
0.05613881 -0.027949553 -0.04002115 -0.05873271 -0.02549503 0.01577874 0.010907074 -0.029908422
-0.01317328 -0.018798534 -0.06108355 -0.020360844 -0.04616849 -0.03909421 0.05366618 0.031424563
0.008015108 -0.033866927 -0.062003486 -0.013528167 0.0038873986 -0.0585241 -0.004430606 -0.008119669
0.012335758 -0.03182923 0.018385323 -0.052121766 -0.048337832 -0.015724713 -0.0017686574 -0.054896284
0.031061118 -0.021926584 0.04571118 0.021497829 -0.047084533 0.02146895 -0.005793183 -0.007915644
-0.043543816 -0.066691004 -0.020452796 -0.013461086 0.043006077 -0.03934822 0.030005274 -0.03597814
-0.019082887 0.011270903 0.044025745 0.026094686 0.03477807 -0.047613606 -0.000606623 -0.030807976
-0.0022923413 -0.047539495 0.06923674 -0.026443716 0.0069971806 0.0027990618 0.024957323 -0.020303583
0.032156285 0.022709113 -0.0018032081 -0.059907656 0.006310905 0.009950827 -0.010518427 0.045745876
0.012097616 -0.018545004 -0.028156513 -0.017380161 0.045306798 -0.00810544 -0.0084090745 -0.022762218
-0.03450108 -0.008838616 0.0487785 -0.04189041 0.01056501 0.017597105 0.017703341 -0.019216148
0.040784862 0.03249664 0.033855006 -0.017656526 -0.013483307 -0.0046922565 0.0022930924 -0.00368768
0.05517294 0.061130084 -0.01263507 -0.0041203396 -0.008804728 -0.003297368 0.0008850948 0.0080990335
-0.012969436 -0.026348935 0.05999474 0.018692723 0.0016840554 -0.023455704 -0.036018256 -0.04976705
-0.00675402 0.011916192 0.031819656 0.016826792 -0.03220007 -0.05099527 -0.005534871 0.04674195
0.029879918 -0.027616289 0.005203275 -0.026001297 -0.018626109 0.03737643 -0.022669898 -0.010230026
-0.022882046 0.020292591 0.056967027 0.027191292 -0.021346278 -0.04315844 -0.034429368 0.024042163
0.019581601 0.0419486 0.014228073 -0.0043540522 -0.007202049 -0.03205182 -0.032710448 -0.04621645
0.0044333776 -0.015830366 0.0016352806 -0.021002619 -0.0020445928 -0.032600377 -0.03431694 -0.01625579
-0.020131102 0.020900829 -0.0054968386 -0.018504502 -0.005153277 -0.01939104 -0.005600256 -0.060264483

net.0.bias f4 [128]
00000000: b241 943a 6b90 3f3c 35d6 843c efec a1bb
00000010: 0078 173d 5515 653d 6a6c 893c d5de 723d
00000020: 9ad5 47bd 0d53 643c 5ea4 dfbc 2b6b 3bbd
00000030: c060 c5bb d039 a33c 612a e53b 8561 013d
00000040: 5c30 193d 98b1 d73b ab0c c93c de64 ba3a
00000050: 9f07 ae3a 1ff8 69bd 4f37 343c 3f01 843c
00000060: 52b1 793b fe79 43bd 6faf dd3c fb6c 043c
00000070: 1e49 023d f4ac 46bd 8ef6 1cbd 518b fabc
00000080: 0780 99bb 9d16 273c 5af5 e9bc 017a efbc
00000090: ac78 11bb 9d6e 133d f41e b13c 9547 dcbc
000000a0: 2e09 abbb 57bb 2abd 7ff3 2a3d 75cb 26bd
000000b0: 8996 723b f008 3c3d 8901 273c f373 153d
000000c0: e3bc 5b3d e073 c93c 445b 3a3d bd03 b03c
000000d0: e405 b8bb 82ea 6dbd 08b3 3c3d efe5 00bd
000000e0: f26c 6dbc 88b8 1c3d 2b66 19bd db6c a4b9
000000f0: 3c9d 1d3c 07a8 3639 4abc 493d 4bdf a93a
00000100: 2665 1ebd 4c8c 4fbc d7c4 9fbc a1bc 10bd
00000110: 65e1 02bd b365 0abd f57b 1ebd 5e65 d33c
00000120: 4c06 30bd 04d0 b8bc b6d0 493c 7502 3e3d
00000130: ef70 cb3c 1dc5 a4bc 089a fd3c d754 04bd
00000140: 7ac1 343b 0b6f d9bc 96f5 853c 2ed7 f03c
00000150: f065 20bb 03ec b13c e9ef c0ba 58a1 5ebd
00000160: 9d23 2c3d ca49 0b3d cd8b 173c 3e71 ce3c
00000170: 4fc8 e2bc 6a8e 23bc b2f0 0a3d 48a5 4abd
00000180: 7564 ea3b 8aa1 163d ad37 edbb d5d7 a0bc
00000190: 83cc 8cbc 6e4c 08bd 4e1b 59bc 4c65 28bd
000001a0: 6d51 413d b223 d9bc 6916 883c 5903 3fbd
000001b0: 4954 a43c f91d fcba 6cb1 b7bc c5d6 08bc
000001c0: e0e1 eebb ba0c a9bc 3e0a 003d a04b 2dbd
000001d0: 31be 253c 0272 da3c 6326 39bc dfa0 593c
000001e0: d4c5 cdbc 28df 8e3a 2dd5 c9bc 761f 9bbc
000001f0: 53aa 96bc 3765 1cbd 5921 aebb 1e60 13bd
0.0011311083 0.011692147 0.016215423 -0.0049415748 0.036979675 0.055928547 0.016775329 0.05929454
-0.04878769 0.0139358165 -0.027300056 -0.0457565 -0.0060234964 0.019925028 0.0069935773 0.031587142
0.037399635 0.00658245 0.024542173 0.0014220735 0.0013277418 -0.057121392 0.010999515 0.016113875
0.0038100076 -0.047723763 0.027061192 0.008082624 0.03180801 -0.048504785 -0.03832107 -0.03058401
-0.0046844515 0.0101982625 -0.028559376 -0.02923298 -0.002219717 0.03599416 0.021621205 -0.026889602
-0.0052196 -0.041682567 0.041736122 -0.040721375 0.0037015995 0.04590696 0.010193237 0.03648753
0.053646933 0.024591386 0.045497194 0.021486158 -0.0056159366 -0.058084972 0.046069175 -0.03146928
-0.014491307 0.03826192 -0.03745095 -0.0003136162 0.009620007 0.00017419468 0.049251832 0.0012960223
-0.03867068 -0.012667727 -0.01950304 -0.03533614 -0.031953234 -0.033788394 -0.038692433 0.025805172
-0.042974755 -0.022560127 0.012317827 0.046389062 0.024834124 -0.020113522 0.030957237 -0.032307472
0.0027581141 -0.026542207 0.016352456 0.02939948 -0.0024474822 0.021718984 -0.0014719936 -0.05435309
0.04202615 0.034005918 0.00924964 0.025200482 -0.027683405 -0.009982685 0.03392095 -0.04947403
0.0071530887 0.03677515 -0.007239303 -0.019634167 -0.017187363 -0.033276014 -0.013251139 -0.04111223
0.047196794 -0.026506279 0.016612248 -0.046634052 0.020059722 -0.0019235007 -0.022423469 -0.008351986
-0.00729011 -0.020635951 0.031259768 -0.04230845 0.010116146 0.026665691 -0.011300656 0.013282984
-0.025118746 0.0010900246 -0.024637783 -0.0189359 -0.018391764 -0.038182463 -0.005314034 -0.035980336

net.1.weight f4 [128]
00000000: ffca 7b3f d4b1 813f 1285 7c3f e44d 7b3f
00000010: 57f6 7c3f 95e5 803f b317 7e3f 782e 803f
00000020: 945a 7a3f fbf5 7c3f 1bf7 803f 8c2a 833f
00000030: 3da7 783f 325c 833f 3833 843f af5c 813f
00000040: 99f7 7e3f 6b8a 843f 66b3 803f 96c6 7e3f
00000050: e3db 813f 8d01 803f d0c1 813f 64c9 813f
00000060: 7aad 7c3f a219 823f f341 833f a68f 803f
00000070: e480 7c3f 9c7d 7b3f 0d65 803f 7db0 7e3f
00000080: 287e 793f b18e 813f 810d 783f 2e84 803f
00000090: e2d4 7c3f 4910 803f 0def 7c3f 2c18 823f
000000a0: acfe 7a3f d4d7 813f d4bf 7d3f 54e2 7d3f
000000b0: 9bc9 7d3f f0b1 803f dd01 7e3f 6666 803f
000000c0: 2307 813f 6307 823f 434a 803f 0795 7e3f
000000d0: 5c6b 7c3f 2821 823f d491 7e3f 0e5d 7f3f
000000e0: 97b8 803f 2cd4 803f 2d7d 7a3f ed5c 7c3f
000000f0: f51a 803f c7bc 813f 703a 823f 9430 7d3f
00000100: 5cca 7e3f 9735 793f a9f0 7e3f 13e8 823f
00000110: 3acd 7d3f 2200 7f3f 4a63 7e3f e375 803f
00000120: 0c2a 813f 5c6a 7a3f 1e83 803f 5b64 813f
00000130: e499 7e3f a77a 803f 3cdf 7d3f e605 813f
00000140: dc4e 813f a153 813f 41ad 813f dd47 803f
00000150: 3b07 7e3f 87c8 7f3f 8e09 7e3f daf0 803f
00000160: 00c2 803f 886f 803f 9cd7 7b3f 78a0 7d3f
00000170: bf39 823f 2086 7f3f 58ae 7e3f dcfe 803f
00000180: 2254 803f 2d47 7f3f 1a4f 7b3f ae3e 823f
00000190: 8586 813f 0d9c 823f 8e7b 7d3f 6f92 803f
000001a0: 713b 7e3f de15 7f3f e800 7f3f 1fb1 7d3f
000001b0: f5b9 813f 1e7b 833f 9e77 7f3f 2195 7f3f
000001c0: 18f2 803f eb69 823f e576 7d3f c9cf 7e3f
000001d0: 2388 803f acda 813f d4a4 7c3f 9573 813f
000001e0: 0848 803f 2417 7d3f 0bfb 793f ec56 803f
000001f0: d7b3 7f3f 58cb 7d3f 1989 833f 2618 7b3f
0.9835662 1.0132394 0.9864055 0.98165727 0.98813385 1.0070063 0.9925491 1.0014181
0.9779446 0.98812836 1.0075411 1.0247359 0.97130185 1.0262511 1.0328131 1.010641
0.99596554 1.0354742 1.0054748 0.9952177 1.0145229 1.0000473 1.0137272 1.0139585
0.98702204 1.0164073 1.0254501 1.0043838 0.9863417 0.9823854 1.0030838 0.9948805
0.97458124 1.0121671 0.96895605 1.0040338 0.98762333 1.000497 0.9880226 1.0163627
0.9804485 1.014399 0.9912083 0.99173474 0.9913575 1.0054302 0.99221593 1.003125
1.0080303 1.0158504 1.0022663 0.9944615 0.9860132 1.0166368 0.99441266 0.99751365
1.0056332 1.006475 0.97847253 0.98579293 1.0008227 1.0135735 1.0174084 0.9890225
0.99527526 0.97347397 0.9958597 1.0227073 0.99141276 0.9960958 0.99370253 1.0035976
1.0090957 0.9781854 1.0040014 1.0108751 0.9945357 1.003743 0.99168754 1.0079925
1.0102191 1.0103647 1.0130998 1.0021931 0.9922978 0.99915355 0.9923333 1.0073502
1.0059204 1.0034037 0.9837587 0.9907298 1.0173873 0.99814034 0.9948478 1.0077777
1.0025675 0.9971798 0.98167574 1.0175378 1.0119177 1.0203873 0.99016654 1.0044688
0.9930945 0.9964274 0.9961076 0.9909839 1.0134875 1.0271947 0.99791896 0.9983693
1.0073881 1.0188574 0.99009544 0.99535805 1.0041546 1.0144858 0.9868901 1.0113398
1.0021982 0.98863435 0.97648686 1.0026526 0.9988379 0.991384 1.0276214 0.9808372

net.1.bias f4 [128]
00000000: 4fb3 77bb 041b 183c 53fc 223c 2518 82bc
00000010: 9131 1dbc ebbe a03b 91c0 69bb 1ff5 0d3c
00000020: 7710 55bb 6063 62bc 323b eabb 99ae 01bc
00000030: 06ae d039 73c5 7f3c 0dbc f5ba c441 573b
00000040: 991a 993b 2f55 903c 3647 df3b 4625 b03b
00000050: e85c 233c 9871 6fbc bc24 503c 93cc ec3b
00000060: 6171 13bb 3fea 99bc 1487 8b3b 6888 243c
00000070: c682 6cbb 7ec4 99bb bd42 ba3b 9efd 2dbc
00000080: e1fb f73b 7de2 d93b 93ae 4c3b 69a7 42bc
00000090: 2c82 8bbc 3c7f 9139 f02a 2cbb 6b42 803c
000000a0: a2e6 48bb 1e82 5bbc 4ad2 5dbb 39e6 14bc
000000b0: f738 b0bb 4c3c e33b 5854 82bc 75ba 0e3b
000000c0: 3394 f83b 416a b73a 24f0 a0bb 451a 8cbb
000000d0: f00f 82bc ec9c 82bc b4d5 adbb 75ca 40bc
000000e0: b10f bc3c 0ad3 c53b fd03 5abb ad99 6cbc
000000f0: 6052 c7bb 1a87 c33c d8ec 023c 81c3 813b
00000100: c585 023c 6e21 99bb 941c c0ba e961 afbc
00000110: 09bd 9abb ec44 02ba 1765 363c b157 2d3b
00000120: 12fc 2dbc c2b3 14bb eba6 0e3b 8f43 8a3b
00000130: 807f 26bb 8d9a b1ba 243b c8ba e39b 80bc
00000140: c085 a23b 51d5 2ebc 14c5 be3b 39ba e83b
00000150: b24f 8bba 2d7c b3bb 29d9 ccba ce02 e7bc
00000160: 12f2 d73b 45ed 2abb 0075 a2bb 170b e2bb
00000170: 02a0 9c3c d2ef 9f3c 66b8 50bb 28ff 8abc
00000180: d20a 903b f831 31bb 33cf 83bc 37ae 7ebc
00000190: 7437 8abc 48cc 11bd 7f30 94bb 06dd d23b
000001a0: df81 13bb a216 bf39 3627 093b e373 87bc
000001b0: 625e 2d3c d940 37bc 7aaf 0a3a 82fc 59bc
000001c0: 2934 e33a 0fb1 a33c 37b4 b7bb ad7c 443a
000001d0: e347 6f3b 79eb 383b a3be 3fbc 6b35 bbbb
000001e0: c759 89bc 07c9 f43a 991e 95bc b0c0 b93b
000001f0: bf15 bd3c 4759 c23b 87e1 843b fa03 9bbb
-0.0037796085 0.009283785 0.009947854 -0.015880654 -0.009594337 0.0049055717 -0.0035667757 0.008664398
-0.0032511035 -0.013817638 -0.00714817 -0.0079151625 0.0003980251 0.01561104 -0.001874806 0.0032845596
0.00467236 0.017618744 0.006813909 0.005375537 0.009970881 -0.014614485 0.012704071 0.0072265356
-0.0022498 -0.018788455 0.004258046 0.010042287 -0.003608869 -0.004692613 0.0056842254 -0.010619549
0.007567868 0.006649314 0.0031231984 -0.011880734 -0.017029844 0.00027751352 -0.002627071 0.01565667
-0.0030655046 -0.013397722 -0.0033847266 -0.0090880925 -0.0053778845 0.006934678 -0.015909359 0.0021778618
0.007586026 0.0013993458 -0.0049114395 -0.0042755925 -0.01587674 -0.015943967 -0.0053050164 -0.0117670195
0.022956701 0.0060371207 -0.0033266537 -0.014440936 -0.006082818 0.023868132 0.007991038 0.0039600735
0.007966463 -0.0046731746 -0.0014656954 -0.021408992 -0.004722242 -0.00049693766 0.0111325 0.0026449973
-0.01061918 -0.0022690152 0.0021766971 0.0042194794 -0.0025405586 -0.0013550088 -0.0015276414 -0.015699333
0.004959792 -0.010670976 0.0058218334 0.0071022776 -0.001062861 -0.0054774494 -0.0015628684 -0.02819958
0.0065901363 -0.0026081365 -0.004957795 -0.0068982947 0.019119266 0.019523535 -0.0031848191 -0.016967371
0.004395821 -0.002703784 -0.016090011 -0.015544466 -0.016872145 -0.03559521 -0.0045223827 0.0064350395
-0.002250783 0.00036447222 0.0020927913 -0.016534751 0.010581585 -0.0111848945 0.000529043 -0.013304831
0.001733427 0.019981889 -0.0056062 0.0007495385 0.0036511354 0.0028216525 -0.011703166 -0.005713155
-0.016766442 0.0018675633 -0.018203067 0.005668722 0.023081658 0.005931053 0.0040552053 -0.0047306987

net.4.weight f4 [64, 128]
00000000: ad0a f43c f5ee 21bc 9f32 40bd 171d 31bd
00000010: a3d7 15bc 6d9a 81bd 39c1 08bd 2039 3e3b
00000020: f5a8 12bc a570 c7bc 8638 7dbd 889b 9e3d
00000030: 2194 42bc 4d46 363d 6632 473d b820 6e3c
00000040: 700a 753d f32f ccbd 81c3 943d 59df 71bd
00000050: 0d64 36bd eb25 30bd 6212 a1bc c8f0 4e3b
00000060: dcbe 22bd 11db bf3d 5d99 e73c 5d6a 533b
00000070: dc2c 33bd 471f 6f3d b380 b7bd 5ced 59bd
00000080: 74cc c5bb f4d7 4abd fa1b b03d 7262 38bd
00000090: 60ad 253d cea4 a73d 2364 823d 163d 523d
000000a0: 2b38 a63c 4d1c 72bc 1e5b b03c 72d0 d5bc
000000b0: 5dca d3bc 0a75 9e3d e62c a13d 80f5 723d
000000c0: d033 913c b52b 8b3b fa91 ae3c 5b28 203c
000000d0: e7ab b0bd 3891 28bd b3bb 023c 7588 25bb
000000e0: 1ea7 9cbd 5e65 73bd d1ea 5ebd 2efb 983c
000000f0: 20b7 89bc 6637 883d d1fb 213c 80c9 603d
00000100: afaa 603d 1eec 1c3a f946 f3bc 4df9 053d
00000110: b1aa db3c 4471 ef3c db7a 7ebc a0a5 a23c
00000120: ed56 8abd 5f41 633d a06e 863d 003f 8d3d
00000130: 5d63 b9bd b7fe d63c c8d9 433d 3c27 27bd
00000140: 10f3 23bc 2b1a 233d d6b4 703d d456 1c3d
00000150: 8c80 16bd a11e c9bd 48d4 953b 97da 813d
00000160: dda9 823d 13e0 a63d f01b b2bc fcc3 b2bd
00000170: 8d6f 163d 629a 2abd 38c3 533d f634 493d
00000180: d799 4bbd 6749 1ebc cc0c 893d 4a2d 0dbc
00000190: c5ec 0d3d 4636 f33c 7509 6b3d ac2f c23d
000001a0: ccfb 2bbc 581d 843d 77e6 9b3d a4ee 80bc
000001b0: c152 04bd 462c 5c3d 669b b73c 1344 d7bb
000001c0: ac37 983d 8bc4 8cbd 6ddc 793d eea8 27bd
000001d0: f9a3 c7bc 37ff d5ba 60a1 3c3d f6c7 bc3d
000001e0: a349 a13c bf4f 72bc 2dc3 653d cc39 473d
000001f0: 4e12 623d 5126 1fbc 592d 2eba 3d5f 1ebc
00000200: 1331 88bc daa6 2b3d b276 9a3d d362 dcbc
00000210: 1dcf b5bd afb7 9f3c 0fdf 1abd 92e1 41bd
00000220: 92ed cb3c 84a1 9e3d 8f0d 843d 0be6 b3bc
00000230: 7ee6 9d3d 6787 12bc fda6 c4bd c1a3 07bd
00000240: 0613 68bd a164 633d 9b43 633d 6202 c33c
00000250: f7d0 b93a a6fc d13c 580a 6d3c b743 8dbd
00000260: f4e2 b33d 5550 763c 746d 84bd ba85 913c
00000270: f642 8d3d d608 223c de2e f0bb 0aa5 aabc
00000280: a044 d4bc 9387 49bd d350 4e3c 5465 97bd
00000290: 2b85 31bd df86 8b3d 0f68 903c 60e4 69bb
000002a0: 6b69 adba 3513 9ebc 40b5 ec39 1056 8cbd
000002b0: 5d6e b53d 917d 81bd 8bc6 7e3d 41e2 61bd
000002c0: 3210 8e3c 3229 89bd 5a42 a3bc 6761 253c
000002d0: e812 b9bd 60a9 4cbd a102 75bd a8d2 7cbd
000002e0: 8692 2b3d ab48 9d3d 088a 9fbd 3cc8 6f3d
000002f0: c7d9 223b b95c d9bd 6871 a0bd fb3c e0bb
00000300: 8ab2 8abc a91c 3fbd 9a53 ac3b 6bf3 6bbd
00000310: 02e3 183d 7861 aebd d513 f73c 62af 07bd
00000320: 57fe e13c e682 923d 5b32 1f3d 3aa2 bc3c
00000330: fb58 9b3d 8444 8abd 316e 423d a69b 513d
00000340: 5fec 343d 5011 33bd 8292 7ebd cc3d a73d
00000350: e22d 9bbc 0add 873c 6b4b 0bbd e223 9e3d
00000360: e463 a2bc 3d03 96bb 3a5d de3c b759 82bd
00000370: 9e4a 00bd 834a a83c b89c 203d 6ade e5bc
00000380: f385 493d ef8e 22bd 3352 92bd cad8 40bd
00000390: 696f bcbd 537d 963d 5dc5 38bd 2084 b43c
000003a0: 9f0a 39bc 0f91 7ebd f774 1e39 5339 bb3c
000003b0: 51d7 fe3b 0697 683d d0fb 34ba eba6 213d
000003c0: f492 d13c 2339 4dbd b2b3 86bd c4e5 c0bd
000003d0: 6a40 833d 3cdf 913d 97ea 893d c57e 79bd
000003e0: c4c1 443d 6a9e 1b3d f5c6 833d dee7 63bd
000003f0: f0c6 633d bcc9 83bd f171 413c 33e9 e83b
0.029790247 -0.009883632 -0.046923276 -0.043240633 -0.00914565 -0.063282825 -0.033387396 0.0029025748
-0.008951415 -0.024345705 -0.061821483 0.07744509 -0.011876137 0.044500638 0.048632048 0.014534168
0.059824407 -0.09970083 0.07263852 -0.05905089 -0.04452901 -0.04300491 -0.019662086 0.0031576622
-0.0397328 0.093679555 0.028271371 0.0032259442 -0.043743953 0.058379438 -0.08960094 -0.05320488
-0.0060363356 -0.049522355 0.08599086 -0.04501576 0.040448546 0.08185731 0.06366756 0.051327787
0.020290455 -0.014777255 0.021527823 -0.026100371 -0.02585333 0.07737167 0.07869892 0.05931616
0.017724901 0.0042471536 0.021309841 0.0097752465 -0.08626538 -0.041154116 0.007979321 -0.0025258337
-0.076490626 -0.059422843 -0.054423157 0.01867446 -0.016810954 0.066511914 0.009886698 0.054879665
0.054850277 0.0005986112 -0.029696928 0.032708455 0.02681479 0.029228814 -0.015532221 0.019854367
-0.06754861 0.055482265 0.06564069 0.06896782 -0.09052155 0.026244504 0.047815114 -0.0408089
-0.010006681 0.039819878 0.05876621 0.038168743 -0.036743686 -0.09820295 0.004572425 0.06340521
0.06380055 0.081482075 -0.021741837 -0.08728787 0.036727477 -0.041651137 0.051699847 0.049122773
-0.04970726 -0.009661055 0.06691894 -0.008616755 0.03464963 0.029688966 0.057382066 0.09481749
-0.010497045 0.064509094 0.07612317 -0.015738793 -0.032305483 0.05375316 0.022412967 -0.0065693944
0.074324936 -0.06873425 0.06100123 -0.04093259 -0.02437018 -0.001632667 0.046052337 0.09217827
0.019688433 -0.014789521 0.056094337 0.048639104 0.055193238 -0.009713725 -0.00066443306 -0.009666261
-0.016624963 0.04190717 0.075421706 -0.026902592 -0.08877394 0.019496767 -0.03781038 -0.04733426
0.024893556 0.077456504 0.064478986 -0.021960279 0.077099785 -0.008943415 -0.09602163 -0.033115152
-0.056658767 0.05551589 0.055484395 0.023804847 0.0014176656 0.025633167 0.014467798 -0.06897681
0.08783522 0.015033801 -0.06466189 0.017763961 0.068975374 0.009889802 -0.0073298058 -0.02083065
-0.02591163 -0.04920156 0.012592512 -0.07392374 -0.04333989 0.06812834 0.017627744 -0.00356891
-0.001323027 -0.019296268 0.0004514847 -0.068523526 0.08858941 -0.06322778 0.062201064 -0.055147413
0.017341707 -0.066973105 -0.0199291 0.010094023 -0.09036809 -0.049966216 -0.05981696 -0.061724335
0.041887783 0.07679876 -0.07789999 0.058540568 0.0024849044 -0.106133886 -0.078341305 -0.006843207
-0.016930837 -0.04665819 0.0052589895 -0.05760519 0.037325867 -0.085146844 0.030160824 -0.033126242
0.027587099 0.07153873 0.038866382 0.023026574 0.07585331 -0.067513496 0.047468368 0.05117383
0.044170734 -0.043717682 -0.06215144 0.08166084 -0.018942777 0.016584892 -0.03400747 0.07721688
-0.019823022 -0.0045780228 0.027144063 -0.06364768 -0.03132116 0.020543342 0.03921196 -0.028060157
0.04920001 -0.039687093 -0.071445845 -0.047081746 -0.09200937 0.073481224 -0.045110095 0.022035658
-0.011294036 -0.062150057 0.00015111627 0.022854483 0.0077771326 0.056784652 -0.0006903978 0.039465826
0.025582768 -0.050103318 -0.06577243 -0.09418824 0.064087704 0.07122657 0.067341976 -0.060911912
0.04803635 0.037992872 0.064344324 -0.055641048 0.055609643 -0.06434962 0.011806951 0.0071078776

net.4.bias f4 [64]
00000000: c5b2 98bd 0d63 9bbc 8d14 adbd ee89 473d
00000010: 4bae 54bd 933a 2e3d 4fe4 9ebd 0883 573c
00000020: 6bf6 3dbd 101a da3c bf9e 903b 6761 923d
00000030: 3ce8 823d 03b8 a63c 4615 453d 096f af3c
00000040: de36 84bd 8a13 203c 23b2 28bd dbaf 3d3c
00000050: 37b7 dc3b 0433 333d 1bfc b83d d7d6 b23c
00000060: fbe3 ea3c 7002 d13d 8cb7 a13d 6553 883c
00000070: 7fa1 83bd 0ef0 adbc db7a 8f3d 32c9 0ebd
00000080: 90cf c4bc 5f1b 903d a53d 843d 7589 883c
00000090: b435 b1bc 50c5 10bd 3ee3 b13d 01e0 67bd
000000a0: 3e92 8abb 48d0 9d3d 392d 553c 7f4c ee3c
000000b0: df89 0dbc adc0 efbc 772e 74bd 2eab 853d
000000c0: b968 333d e974 55bd 7198 e0bb c29f 98bc
000000d0: 8262 c9bb 1589 1d3c 196a 123c e54d 62bc
000000e0: 01f7 3ebd 84a9 663d d2a7 5cbd cb4e 1abd
000000f0: f0f8 02bb 3c14 4d3d cdd0 88bd bec3 dd3a
-0.074559726 -0.01896813 -0.084511854 0.048715524 -0.05192403 0.04253633 -0.0775839 0.013153799
-0.04637758 0.026623756 0.0044134553 0.07147484 0.063919514 0.020351416 0.04811599 0.02141525
-0.064557776 0.0097702835 -0.04118551 0.011577572 0.006735708 0.043749824 0.0903246 0.02183096
0.028673163 0.10205543 0.07896337 0.016641328 -0.06427287 -0.021232631 0.07005855 -0.034859844
-0.024024755 0.070364706 0.0645707 0.016667107 -0.021632053 -0.035344422 0.08685921 -0.05661011
-0.004228859 0.07705742 0.01301127 0.02908921 -0.008638828 -0.02926668 -0.059614625 0.065267906
0.043801043 -0.052113447 -0.00685411 -0.018630866 -0.0061457762 0.009615202 0.008936428 -0.013812517
-0.04662228 0.056314006 -0.053870983 -0.0376728 -0.0019984804 0.050068125 -0.066804506 0.0016919298

net.5.weight f4 [64]
00000000: 277a 7c3f 68ed 7c3f 224a 803f 8647 803f
00000010: 6093 7e3f 9fca 803f 9563 7a3f 0857 7a3f
00000020: 738b 7f3f d87f 7c3f df69 813f 67be 7f3f
00000030: f34c 7d3f eb4d 803f c29d 7f3f 6bcb 7f3f
00000040: 5eb6 803f 7421 803f e4db 7f3f 9766 7e3f
00000050: eff2 7e3f 343f 823f 6726 803f 219d 813f
00000060: fd3a 813f 7896 803f bfcb 803f fd52 7f3f
00000070: 04c5 833f aa2b 813f 43cc 803f 9b5e 813f
00000080: 736a 7f3f 209b 7d3f b881 7c3f 59f8 803f
00000090: 461a 7b3f 5f10 803f 1821 803f 9b0a 823f
000000a0: 37ea 833f ba47 7f3f 7fc8 803f 3084 7d3f
000000b0: 8a18 7e3f 4784 833f 1919 783f 93d5 7a3f
000000c0: 28f3 7b3f 98de 813f a7bd 7c3f c289 803f
000000d0: 6699 7b3f 550f 823f f834 813f 53c3 7b3f
000000e0: 44b3 7c3f e5bc 7d3f c5c3 7b3f 38bd 7e3f
000000f0: 8f2e 813f 51c4 803f 6779 7e3f a8f4 7e3f
0.9862389 0.98799753 1.0022624 1.0021827 0.99443626 1.0061835 0.978082 0.9778905
0.9982216 0.98632574 1.0110434 0.99899906 0.9894554 1.0023779 0.99850094 0.99919766
1.0055654 1.0010209 0.999449 0.9937529 0.9958944 1.0175538 1.001172 1.0126077
1.0096127 1.004592 1.0062178 0.99736005 1.0294499 1.009145 1.0062336 1.0106996
0.99771804 0.99064827 0.98635435 1.007579 0.98086965 1.0004996 1.00101 1.0159487
1.0305852 0.9971882 1.0061187 0.9902983 0.99256194 1.0274743 0.96913296 0.9798214
0.984179 1.0146055 0.98726887 1.004204 0.9828094 1.0160929 1.009429 0.98344916
0.9871104 0.99116355 0.98345596 0.99507475 1.0092334 1.0059911 0.99403995 0.99592066

net.5.bias f4 [64]
00000000: 3fcf 72bc c906 14bc f627 c43b 2a95 9bba
00000010: 6ea2 063b 8a35 a03b d1ca 8dbc 26b0 a8bc
00000020: 3e12 0cbc f3b2 46bb 3452 163c 32aa aa3a
00000030: c3cb 3bbc 3891 b93b fe7a abba b881 0fbb
00000040: c77f 4c3b c4f2 55bc ce5f 22bb 91a3 b4bb
00000050: d8e1 1dbc 9f45 d73a 7460 463c 1fa6 a63c
00000060: 4c8d 96bb 16a5 443c 671c 4ebc a64f 42bb
00000070: b0d9 8f3c 0d74 223c da66 383c c7ce b13a
00000080: 394c 203a 4cc3 8abb 15f7 3dbc 1412 1f3b
00000090: 47d2 8bbc 6218 c239 db9c 34ba c331 5f3c
000000a0: 66a8 8bbc 6d3a ccbb 98b1 de3b 7b4e cebb
000000b0: f98f 88bc f549 903b 9eb4 b9bc c9f8 c4bc
000000c0: e7fd ccbb 8a37 87bc 15ce bbbb b7ce a6bb
000000d0: 0858 2cbc 7bec 023c dd97 46bc 5802 50ba
000000e0: c50c 0bbc e35d 77bc 1577 8ebc ea20 bdbc
000000f0: a0af 8abc dcb9 b93b e3ab 17bc 2a97 47bc
-0.014819919 -0.009034821 0.005986209 -0.0011870016 0.0020543593 0.004889195 -0.017308624 -0.020591807
-0.008549271 -0.0030319064 0.009174872 0.0013020693 -0.011462155 0.0056630634 -0.0013082919 -0.0021897387
0.003120409 -0.013058368 -0.0024776342 -0.0055126627 -0.009636365 0.0016423947 0.012107957 0.020342885
-0.0045944806 0.01200225 -0.012580014 -0.0029649525 0.017559856 0.009915364 0.0112549905 0.0013565653
0.00061148737 -0.004234707 -0.0115945535 0.002427225 -0.017068041 0.0003702073 -0.00068898284 0.013622704
-0.017048072 -0.006232551 0.006796073 -0.0062959767 -0.016670214 0.0044033476 -0.022669133 -0.024044411
-0.0062558535 -0.016505975 -0.005731354 -0.0050905603 -0.010519035 0.007990952 -0.012121168 -0.00079349196
-0.008486931 -0.015098068 -0.017390767 -0.023086984 -0.016929448 0.005667908 -0.00925729 -0.012182036

net.8.weight f4 [3, 64]
00000000: f768 8e3c 19ec 993c b4cc bb3d 3a2f f4bd
00000010: 41a1 eabd d69d dfbd 4519 3abd 7c8d fdbc
00000020: 475a 25bc ed10 36bc 60d1 063e d310 e83d
00000030: 8292 053d cb03 8d3c e6e9 42bd 2de5 d6bd
00000040: 45ba e5b8 ad76 e4bc 9449 9fbd 9a79 e4bd
00000050: 00fd bdbd 044d 103e 48f2 083e 6eb5 003e
00000060: 0c45 f73d 9105 a13d 32d2 f23d 0aa8 443d
00000070: 9fda 933d b8bb ca3d 1be4 4ebd 376f 4f3d
00000080: 1b53 873d 611c c03d 6695 39bd 95b7 39bd
00000090: 4b37 733d f91b f2bd 4285 873d b3bb debd
000000a0: d569 03be f6d8 d0bd bbbf e8bc 1b83 debd
000000b0: 2080 c5bc 5d9c d6bd fc88 bc3d 7620 0c3d
000000c0: 0a42 c5bd 3280 b7bd c170 263d 572c febd
000000d0: 7cd5 babd 0ce5 0b3e b7a7 313d ab76 a43d
000000e0: a713 793d 6079 dabd 8131 00bb e4d8 713c
000000f0: 0934 a03c 7364 d0bc ec34 813d ccef 8ebc
00000100: fa19 893d 36c0 35bc 5e4d a8bd be67 a63d
00000110: 066b a8bd 92a6 cf3d 6bea 5e3d 167e a63d
00000120: a4ed 793d 1c19 e83c c33b 8dbd 9460 193d
00000130: e71b c7bc 6c99 4cbd 01a3 8abb ab2a d63c
00000140: 078a 3fbc 23bf 1fbd 8d00 bebd 6883 48bc
00000150: 2bc6 813d f300 b53d bca6 133d cf52 cfba
00000160: 5483 da3d 6556 06be b4c6 42bd cc68 0cbb
00000170: 8721 87bd 8412 bebd ef9a debd bf3b dbbd
00000180: 22be da3c de5c da3d a443 773d 819a 043e
00000190: cd39 ce3d ddbe febd 2ffc 16bd e17b 08be
000001a0: 313e fe3d 3d59 223d 7952 cd3d a07c b23c
000001b0: fd99 da3d d600 f4bc 4d91 c13d 9b93 573d
000001c0: bb65 debb 12b7 43bd 64aa 9c3d e08d 8c3d
000001d0: 0a40 dd3c a6fa ecbd be84 b33c e209 063d
000001e0: 573f d6bd 4258 433a 4641 fc3b ff6d e6bc
000001f0: 3879 80bd 3157 f0bd 3c57 fbbc 409c dabc
00000200: b0b1 f0bb d50c 86bb 43dd a33d ef48 423d
00000210: 4eed ee3d f245 843d 8848 71bb 7666 6fbd
00000220: a96b 1f3d 0c1d ddbd c0b1 a5bd 6927 15bd
00000230: 3c9e 78bd 746f fbbd 6316 dabd 279d f1bd
00000240: a376 b6bd 39d2 913d b1fc a43c 6486 873d
00000250: 08ad dbbd 2040 a83d 7255 863d e8c8 44bc
00000260: ced4 a4bd 7c61 bbbb a3d2 0c3d 76ca 4bbd
00000270: f66b 33bd 2364 c73d 2c4a 1bbd d1e4 e6bc
00000280: c682 9ebd c5c1 58bd 6cfc 35bd d584 f7bd
00000290: b11e 8c3d 304e b6bd e290 733d df94 f7bb
000002a0: d7df ef3d 5a22 d2bb 2cce dd3d dc0a 9ebd
000002b0: 01bc 213c de5e 64bc a7dd be3d 50bf 1e3d
000002c0: 4110 343d 396b 13bd 881d 843d 372c f33d
000002d0: 2cfa 7d3d eefe a2bd 6e96 7fbc 75dc aebd
000002e0: 3bb4 60bb 376a 923c 07d0 d23d 81c6 c4bd
000002f0: 6e12 0c3d 5b6a 043d 5160 83bd 75f5 143c
0.017384036 0.018789338 0.091699034 -0.1192307 -0.11456538 -0.10918777 -0.045434255 -0.030951254
-0.010092325 -0.011112434 0.13165808 0.11331334 0.032610424 0.017213723 -0.047586344 -0.104929306
-0.00010954266 -0.02788862 -0.07777706 -0.11156006 -0.092767715 0.14091879 0.13373673 0.1256921
0.120737165 0.0786239 0.11856498 0.048011817 0.07219433 0.09899086 -0.050510507 0.050643172
0.06607648 0.09380413 -0.045308493 -0.045341093 0.059378903 -0.118217416 0.06617214 -0.108756445
-0.1283334 -0.10197632 -0.028411737 -0.1086485 -0.024108946 -0.10479043 0.09205815 0.034210645
-0.096317366 -0.08959998 0.040634874 -0.12410801 -0.0912275 0.13661593 0.043372836 0.080304466
0.060809758 -0.10667682 -0.0019560757 0.014761183 0.019556062 -0.025438523 0.06308922 -0.017448328
0.06694408 -0.01109319 -0.082178816 0.08125256 -0.08223538 0.10139193 0.054422777 0.08129518
0.061017647 0.028332286 -0.06896164 0.03744562 -0.024305297 -0.049951002 -0.0042308574 0.026143393
-0.011690623 -0.03900064 -0.09277449 -0.012238361 0.06336626 0.08838072 0.036047682 -0.0015817526
0.1066958 -0.13118894 -0.04755278 -0.0021424768 -0.06598192 -0.09280875 -0.10869395 -0.10704755
0.02670199 0.10662244 0.06036724 0.12949564 0.100696184 -0.12438748 -0.036861595 -0.13328506
0.12414206 0.039635886 0.10025496 0.021787941 0.10673902 -0.029785555 0.09451542 0.052631002
-0.0067870296 -0.04778201 0.07649687 0.06862998 0.027008075 -0.11571245 0.021913882 0.03272427
-0.104613 0.0007451811 0.007698211 -0.028128622 -0.06273121 -0.117353804 -0.030681245 -0.026685834
-0.0073454008 -0.004090885 0.08001187 0.047432836 0.11666356 0.064586535 -0.0036816914 -0.058447324
0.038921032 -0.10796556 -0.08090544 -0.036414538 -0.06069778 -0.12277117 -0.10648801 -0.117975526
-0.08909347 0.07120175 0.020140024 0.0661743 -0.107263625 0.08215356 0.06559266 -0.01201079
-0.08048402 -0.005718408 0.034380566 -0.04975363 -0.04380413 0.097358964 -0.037912533 -0.02818528
-0.07739787 -0.052919168 -0.04443018 -0.120858826 0.068417914 -0.08901632 0.059464343 -0.0075555886
0.11712616 -0.0064127864 0.1083034 -0.07716915 0.009871484 -0.013938634 0.093196206 0.03875667
0.043960813 -0.035990927 0.06450945 0.11873668 0.06200616 -0.0795878 -0.01559983 -0.085381426
-0.0034287113 0.017872913 0.10293584 -0.09608174 0.034197263 0.03232799 -0.06414855 0.009091725

net.8.bias f4 [3]
00000000: a450 8abd bfdb be3c ecb8 cfbd
-0.06753662 0.023298142 -0.10142693
