agent_action_guard/action_classifier_model.pt (torch, 112773 bytes, 10 tensors)

net.0.weight f4 [64, 384]
00000000: 8572 583d 51ae 2c3d 2b61 7bba fd99 603d
00000010: 771a 95bb 88a0 82bc b7bf a7bc 140e ee3c
00000020: 1d98 553d ab31 24bd df5c 693d b7d1 d53b
00000030: 633d 123d f1f3 343c 3dec 9e3c 5803 72bb
00000040: 5d89 213d ffd4 c03b eb99 ebbc ff18 8e3b
00000050: 5706 cabc eba8 44bc e75c 78bc b29c 273d
00000060: d387 16bd aa7f f6bc 347a 8fbc 8aec 15bd
00000070: 1922 973a 0302 62bd 6d32 473d 2303 1ebd
00000080: 0df0 173d 84ea 0e3c 6a0f 7dbc 7728 0e3d
00000090: f0a9 ee3b 618f 163d 5cb5 cebb dc94 8fbc
000000a0: 9d15 143d 722a f7bb 9d18 c63c de38 413d
000000b0: 8988 bb3c c9c7 afbc 454f b33c 909d 063c
000000c0: 9312 a63c 546b c2bc a970 18bd 93a0 a6bc
000000d0: 9c5e 1ebd c40e 4a3d 7a20 063d 50a2 633c
000000e0: e5f2 1a3c 8d35 9f3b 6374 3f3d 638f 18bd
000000f0: e9f8 8d3c 8121 c2bc 89ce 3c3c 7a46 cabc
00000100: 24f5 ee3c 7238 08bc 3e46 4c3d 52d0 f1bc
00000110: 5964 99bc 9944 cabc 972b 5e3d 10d2 223c
00000120: 05a0 3a3d daf8 4abd 3a24 71bd 4e73 0ebd
00000130: ef75 d3bc bc1a b03c df96 133c 075c 513d
00000140: 9e27 aebc 34bf fbbc 75b2 923c 0fcf f6bc
00000150: 699a 093d 5b46 45bc bc72 ca3c 5f2e dbbc
00000160: 5b22 f1bc c034 a83c ae77 d9bb 9669 82bc
00000170: 14ff 4d3d 682a 5a3d 0340 04bd 9fe1 aabc
00000180: 23fc 2f3d cd53 97bc fe8f 4cbc ed6b 4bbd
00000190: 42ee debc 1e75 003d c565 17bc eafa 45bd
000001a0: 7f40 afbb 19a7 53bd a7a1 32bd 696d 0abd
000001b0: 9449 6dbd 9dd5 f7bc 26c8 5d3d 034f 623c
000001c0: e2c9 553c 0d04 2fbd c302 b2bc 6f07 cdbc
000001d0: cb21 7c3c 1020 8bbd 2412 84bc b8cd 1cbd
000001e0: ccfd e1bb 62fa bbbc ad0d f8b9 9098 57bc
000001f0: c78c 19bd d17b f8bc e6ee 16bd 09f6 1dbd
00000200: e8b4 3b3d b3ce aabc 8952 1d3d b2ef b13c
00000210: dced 52bd 0445 1f3d 2b73 b8bc 9789 98bc
00000220: 6671 47bd ab86 57bd 8753 423c 3148 2ebc
00000230: 7d5f 613c 76a8 0fbd 9f1c 423d a9d3 32bd
00000240: f0bc 1e39 d003 7e3c 696f f93c 52e5 193d
00000250: d0a1 403d 9d48 f1bc 0762 073c 8220 cdbc
00000260: ca23 d7bb a9ec 39bd 8f25 323d 50b3 33bd
00000270: 119e 953c 73de f93b 393a ca3b cfe8 cabc
00000280: 5c79 613d 5a34 fa3b b188 a7b8 53ca 33bd
00000290: 8599 ce3b 29a8 a0bc 272c f4bc 7d0f 3f3d
000002a0: 404e 643c 4ede 51bb cace 18bd 4205 8a3b
000002b0: 952a 0b3d 94fc d2ba d7c9 32bd cb6f a1bc
000002c0: 8d0a 2cbd ec0d 8d3c 2d08 3c3d dae4 2abd
000002d0: 5464 593c f025 0e3d 2db0 b13c ae24 b7bc
000002e0: 6b48 033d fd10 aa3c feed e93c 481d 993a
000002f0: e69e 8dbc 67ed e23a 44db 50bc 2fea 71bc
00000300: f012 063d deda 543d d079 53bc 32a8 02bc
00000310: 17bd afba e218 b73b a423 7a3c cad0 083c
00000320: 0c60 76bd 0c17 8fbc 60b1 123d b761 953c
00000330: a985 b7bb d424 f0bc 794e 6cbd 658b 53bd
00000340: f2f5 19bd 3bb1 d13b 28fe 223d 104f fa3c
00000350: 15e9 89bd 998d 97bc c587 d4bb 5944 2c3d
00000360: 3e0d bf3b c44e 473b 7283 f33c fec3 10bd
00000370: 5c30 e6bc 3468 023d c5c7 0abd d79b 27bc
00000380: a052 4ebd c134 123d e27a 0d3d f8a6 cf3b
00000390: 63c3 38bd 997f 3cbd 8dff 54bd 6b95 2f3d
000003a0: 96f4 d63c a82d 1a3d eabf 893c 3f85 3e3c
000003b0: 08a2 473a 7a78 48bd 4f07 77bd 5f5a 23bd
000003c0: 21f6 003d bce3 1dbd 545b 92bc d614 ecbc
000003d0: b491 bfbc 2d25 1dbd 16f3 26bd 90d7 f83b
000003e0: 07b2 03bd a7fd 193d c669 64bc 507f 11bd
000003f0: c647 70bb d68e b5bc 3d4e 9fbc 5c1b 2bbd
0.05284359 0.04215843 -0.00095893693 0.054834355 -0.004550274 -0.015945688 -0.020477159 0.029059447
0.05214702 -0.04008643 0.056973334 0.006525244 0.035703074 0.011044488 0.019399757 -0.0036928263
0.03943764 0.005884766 -0.028759917 0.004336476 -0.024661226 -0.012003164 -0.015158868 0.04092092
-0.036750626 -0.030090172 -0.017514326 -0.036602534 0.0011530548 -0.0551777 0.048632074 -0.03857721
0.037094165 0.008722905 -0.0154455695 0.03470656 0.0072834417 0.03675783 -0.006308241 -0.017527036
0.036153425 -0.0075429017 0.024181658 0.047173373 0.022892253 -0.02145757 0.021888385 0.008216277
0.020272529 -0.023732819 -0.037216816 -0.02034024 -0.038664445 0.049330488 0.032745816 0.013893679
0.009457325 0.0048586787 0.046741854 -0.03724612 0.017330604 -0.023697617 0.011523851 -0.024691809
0.029169627 -0.008314239 0.049871676 -0.02951828 -0.018724607 -0.024690913 0.05424079 0.009937778
0.045562763 -0.04955373 -0.05887244 -0.034777932 -0.025813071 0.021497123 0.009008138 0.051113155
-0.021259125 -0.030730821 0.01790736 -0.03012803 0.033594523 -0.0120407 0.024712913 -0.02675551
-0.029435327 0.020532966 -0.0066365814 -0.015919488 0.05029209 0.053263098 -0.03228761 -0.020859538
0.042965066 -0.018472577 -0.012485502 -0.049663473 -0.02721322 0.03136169 -0.009240572 -0.048334993
-0.0053482647 -0.05167303 -0.043611195 -0.033795748 -0.057931498 -0.030253226 0.054145955 0.013812783
0.013048621 -0.042728473 -0.021729833 -0.025027959 0.015388916 -0.06793225 -0.016121931 -0.038282126
-0.00689671 -0.02294654 -0.00047312435 -0.013158932 -0.03748777 -0.030332478 -0.036848925 -0.038564716
0.045826823 -0.020850515 0.03840879 0.021720741 -0.05149637 0.038884178 -0.022515854 -0.018620295
-0.04869213 -0.052618664 0.011860735 -0.010637329 0.013755676 -0.035072766 0.047390576 -0.043658886
0.00015138439 0.015503839 0.030448632 0.037572213 0.047029316 -0.02945357 0.008263118 -0.025039915
-0.0065655457 -0.045391712 0.04349285 -0.043872178 0.018263848 0.007625395 0.0061714915 -0.024769215
0.055047378 0.0076356353 -7.988641e-05 -0.043894123 0.006304922 -0.019611435 -0.02980621 0.04664563
0.013934672 -0.0032023373 -0.037306584 0.0042120526 0.033976156 -0.0016097003 -0.04364952 -0.019706627
-0.04200225 0.017218553 0.045906235 -0.041722156 0.013268549 0.03470415 0.021690452 -0.022356357
0.032051485 0.020760054 0.028555866 0.00116817 -0.017287683 0.0017313183 -0.0127475895 -0.014765306
0.032732904 0.05196654 -0.01290746 -0.007974671 -0.0013407794 0.005587683 0.015267286 0.00835056
-0.06015019 -0.017467044 0.03581369 0.01823507 -0.0056006503 -0.029314436 -0.057692025 -0.05164661
-0.037588067 0.0063993013 0.039793164 0.030555278 -0.0673391 -0.018500136 -0.0064859116 0.04205737
0.005830436 0.0030411938 0.029725764 -0.035343163 -0.028099231 0.031837657 -0.03388192 -0.010230026
-0.050371766 0.03569484 0.03454102 0.006337043 -0.04510821 -0.046020124 -0.052001525 0.042867105
0.026239675 0.037641197 0.016815145 0.011628448 0.0007615392 -0.04894302 -0.060309704 -0.039881106
0.031484727 -0.038547263 -0.017865814 -0.02881853 -0.023384906 -0.03836553 -0.04075917 0.0075940564
-0.032152202 0.037595417 -0.013941234 -0.035521805 -0.0036663874 -0.022162836 -0.019446487 -0.04177414

net.0.bias f4 [64]
00000000: 1c71 083d 1ee6 0abd 3570 463d befd babc
00000010: 25e9 413a 1bed 15bb dfc8 59bd ce7a 143d
00000020: c711 3bbd 1f7e 3c3c 96c0 81bc 7bb9 cf3c
00000030: a2ab 433c a2b2 5cbc 6475 10bd f5d9 b23c
00000040: 9885 dd3c c64b 4bbd a5d3 41bc f308 68bc
00000050: 6bd1 57bb b93e acbc d5b8 55bd d66d 1f3c
00000060: 3824 933c 6f64 f83c 1334 213d ec71 fc3c
00000070: 2df9 13bd 80d8 3a3d 6e0c e1bc 1601 133d
00000080: 8426 35bd df1d 8bbc e52f c7bc d294 563c
00000090: a4d7 09bc bdf3 2f3d 4ba7 d1bb 7141 05bd
000000a0: d3df 1dbd 7701 01bb 39e6 02bd 9fec 8bbc
000000b0: e6eb ddbc a901 223d d6b7 3c3d 93a8 fbbc
000000c0: e294 373d 4634 09bc f5ae 2abc dcd1 25bd
000000d0: 784a d0bc a8ed 9dbc 169d abbc 4e0e a5bc
000000e0: 572b 26bc 1fb0 adbc a71e b9bc 33cc 003d
000000f0: 1177 25bd 0618 0cbd 2fb2 44bc 67dd 123d
0.033310995 -0.033910863 0.048446853 -0.022826072 0.0007397107 -0.0022876922 -0.05317008 0.03624993
-0.04567125 0.011504679 -0.015838902 0.025356999 0.011942776 -0.013470324 -0.035268202 0.021832446
0.027041242 -0.04963281 -0.011830245 -0.01416229 -0.003293122 -0.021026002 -0.052178223 0.009730777
0.017961606 0.030321328 0.039356302 0.030816041 -0.036126304 0.045616627 -0.027471747 0.035889708
-0.044226184 -0.016982017 -0.02431483 0.013097005 -0.008413229 0.042957056 -0.0063981167 -0.032533113
-0.038543534 -0.001968471 -0.03195784 -0.017080603 -0.027090024 0.039552364 0.046073757 -0.03072003
0.04481972 -0.008374279 -0.01041769 -0.04048334 -0.025426134 -0.019278362 -0.020948928 -0.020148423
-0.010142169 -0.021202145 -0.022597624 0.03144474 -0.040396754 -0.034202598 -0.012005373 0.035855677

net.1.weight f4 [64]
00000000: b089 803f ea06 7d3f 8917 803f 3823 803f
00000010: 4e4f 803f f666 813f 80b2 803f ad85 7e3f
00000020: b4f4 7a3f 54ab 7e3f bce9 7f3f 3375 803f
00000030: e74c 7f3f c0ae 7f3f be9d 7e3f 6d91 7e3f
00000040: 4f8a 813f faf3 7f3f 91f2 803f fc01 833f
00000050: 2b22 7e3f 0ebc 803f b231 803f 6bce 7c3f
00000060: 8d2b 803f 9304 803f 3900 803f 0b41 7f3f
00000070: 9811 823f 155d 7d3f 1192 803f 3826 7d3f
00000080: 2cb3 803f c4b1 803f 2f6c 803f 45ef 813f
00000090: 1fb2 803f 543b 7d3f 0258 7f3f 38b6 813f
000000a0: 219d 803f 701f 833f 17c0 7d3f 5d15 7d3f
000000b0: 3dcd 803f b891 7d3f 4a03 7f3f 8158 813f
000000c0: 2337 803f 0413 7e3f 9bd2 813f 9867 803f
000000d0: 6351 813f 7dae 7f3f 0568 7e3f 7cdf 813f
000000e0: 0a30 7f3f 3c34 803f 5b70 803f 23ce 7e3f
000000f0: de6a 7b3f da72 813f 80dd 803f 64cb 7f3f
1.0042019 0.98838675 1.0007182 1.0010748 1.0024202 1.0109546 1.0054474 0.99422723
0.9802964 0.99480176 0.99966025 1.0035766 0.9972672 0.9987602 0.99459445 0.9944065
1.0120333 0.99981654 1.0074025 1.023498 0.99270886 1.005739 1.0015166 0.9875247
1.0013291 1.0001396 1.0000068 0.9970862 1.0161619 0.98970157 1.0044576 0.9888644
1.0054679 1.005425 1.0033015 1.0151144 1.0054358 0.9891865 0.99743664 1.0133734
1.0047952 1.0243969 0.9912123 0.9886072 1.0062634 0.99050474 0.99614394 1.0105134
1.0016826 0.99247766 1.0142397 1.0031614 1.0102962 0.99875623 0.9937747 1.0146327
0.99682677 1.0015941 1.0034288 0.9953329 0.9820994 1.0113175 1.0067596 0.99919724

net.1.bias f4 [64]
00000000: e9f5 10bb 15a7 c2bb 7e71 153b fa3c 06bc
00000010: 2361 fe3b 8d87 87b9 83af 3dbc e74e 17bc
00000020: ba23 8e3a f12b 9bbb 2e64 9d3b b210 403b
00000030: d72b 90bb 41e9 d13a 4595 efbb e0b4 223a
00000040: aafc 813b b528 b8bb f19d cf37 b91c 983b
00000050: b31e 3cbb 26b4 1dbb bd3b 97bb 9c57 1bbc
00000060: 6de9 a0bb d794 a43a 77f8 3bbb da28 10bb
00000070: 88ac 46bc afaa b7bb 432b 6a3b fab7 14bc
00000080: 7c02 cfbb f42f 2e3c 4ee1 243c 7bd3 013c
00000090: 089e 2c3c 14a3 95bb c1c5 47ba 19ca 42bc
000000a0: 6a53 e2bb 25fc 1b3c 8739 fabb 326b 00bc
000000b0: b8a0 70bc b215 1bbc ac3f bcbb 809a 2cbc
000000c0: 18e5 d63a 3059 96bb 4621 c63b 5d6d 183c
000000d0: 8b49 ee3b bfa1 213a fb1b 743b 57be 353c
000000e0: 145f c7bb 9605 533b 20e2 b53b 86f3 04bc
000000f0: 54a4 ccbb 8087 33bc 7b9b 933b 35cd 01bb
-0.002211923 -0.005940328 0.0022803242 -0.008193249 0.0077630444 -0.000258502 -0.01157749 -0.00923512
0.0010844388 -0.004735463 0.004803202 0.0029306826 -0.0043997574 0.001601495 -0.0073114955 0.0006206762
0.0039668875 -0.005620087 2.474987e-05 0.004642096 -0.0028704822 -0.0024063676 -0.0046152757 -0.009481337
-0.004910639 0.0012556565 -0.0028682032 -0.0021997006 -0.012126096 -0.005605064 0.0035731352 -0.009077067
-0.006317435 0.01063155 0.010063482 0.007923956 0.010535724 -0.0045665596 -0.0007620715 -0.011889004
-0.0069069164 0.009520565 -0.0076362523 -0.007838057 -0.014686756 -0.009465622 -0.005744895 -0.010534883
0.001639518 -0.0045882687 0.006046447 0.009303418 0.0072719506 0.00061657646 0.0037248123 0.011092744
-0.0060843322 0.0032199374 0.005550638 -0.008114701 -0.0062451754 -0.010957599 0.0045046187 -0.001980615

net.4.weight f4 [32, 64]
00000000: 67a3 403b b59b 5ebd 5f47 b4bd e34e 013d
00000010: 03fe d43d 4ac4 a5bd a2d0 10bd c009 a5bd
00000020: 1369 a3bc 9b7e 1ebc eeec 58bd 876d 933d
00000030: ca33 073d 6307 ccbd 1ea4 a13d 2dd9 e4bc
00000040: 0869 8a3a 7857 b33c a45c 9d3d 8848 443c
00000050: 86fa ce3d f911 973c 66af 1abd 6819 bd3d
00000060: ad53 b83d 26e4 8fbc 4b15 d73d 75dc d23c
00000070: 1ffe 3f3d 9776 84bd d2ea 01be eb06 373d
00000080: 97ec 73bd 4388 e63c 91ed acbd 2938 b5bc
00000090: a0b1 efbd f7d5 90bd e42b 93bc fed5 b2bd
000000a0: 1344 c23d 24fb 8d3c 1d35 933d b390 2c3c
000000b0: ce90 0cbd 0357 06be 934e 0ebc 3041 05bd
000000c0: d1e4 863c 1d74 9dbd 5b08 b73d b1b1 3d3c
000000d0: 50c4 c23d ea0a 6a3d 5196 6dbd cfca bfbc
000000e0: 1bdd 4abc 801e 8abd 56ec 143d d496 0b3c
000000f0: 75f4 013e d9fe 973c d6b9 ca3d 490c 993d
00000100: 4b13 453d 6317 c8bd 6d40 853d 7a2e 61bc
00000110: c324 eabb c9b6 dfbd 246d acbd bbde 8a3d
00000120: 6009 e63c f698 853d b0f1 08be 2dc9 66bd
00000130: b073 afbd 3539 c1bd 3f02 7a3d 59e5 3ab9
00000140: 161b 28bd ed07 873b 54a7 5ebc f222 043d
00000150: 90aa bcbd bb9c 5e3c 680c 9f3d c721 d33d
00000160: f7e5 c43d a454 31bd a244 e0bd fdb6 e53d
00000170: 0d72 1b3d a053 763d 93af 0b3e 0b56 5e3d
00000180: 8767 ddbd 61a6 b23d 591d 6ebd da95 71bd
00000190: f45f b03d 0ff1 53bc 91ec 833c 1a40 e53c
000001a0: 6434 503d b585 86ba 6736 df3d 9db6 dcbc
000001b0: 2251 b9bc 0d69 eabb d063 8abd 5805 4ebd
000001c0: f1b1 0cbd 9caf 57bd 4faa 003e c68d 93bc
000001d0: 0587 ef3d 4cf6 ef3d bb3c c93c 9042 553d
000001e0: 2060 d5bd 394f 0b3b 5f52 ea3d add5 8cbc
000001f0: ad18 b3bd c7a5 4ebc 7372 61bd f902 a3bd
00000200: 271a 4d3d d1df ea3c 3273 e03c efe2 cebd
00000210: 4c64 04ba 0fdb ee3d eb51 943c 6f94 e03d
00000220: 8366 4cbc e19a 033c 0d2e 863d c954 89bb
00000230: ffa8 893d 300e e23d 5ed1 c73d 0e1e 4b3d
00000240: a48f c53d 547b c93d 8a17 05be 1077 513d
00000250: 0046 ae3d beff 9e3d 405d 96bd d9b4 c83d
00000260: 9574 b23c c525 2b3d c745 f0bd 2a7d d13d
00000270: 528e d9bd 3438 3a3d 7de4 bd3d 893e 6a3d
00000280: d30d 1abc 9ae6 b0bc b29e debd 193f 75bd
00000290: 4513 70bd c9b8 9b3d 3292 923d 800c fdbc
000002a0: 6842 593d 6962 28bc 1991 00bd 7263 a13d
000002b0: 449e 9bbd f14f bb3c d53d b33c 7dfb 753b
000002c0: e2b1 b03c e5f5 b83d 9f11 4b3d 964e fbbc
000002d0: 5789 463d 264b 693d e731 48bd f8a3 a2bd
000002e0: 0cf2 9f3d 4c70 96bc 854f cb3d 7bfb aa3c
000002f0: e8b1 e83c 5ba5 893d af93 c63d ecaa 38bd
00000300: 0aa5 703d faf8 36bd 48c5 713d 746e e1bd
00000310: a2fc dd3d 4de2 c63d 5485 aa3d 3417 cd3d
00000320: c36a 13bd 69a9 40bc ffa6 47bd d496 ab3c
00000330: f1c5 0a3c 098f 16bc bd20 78bd eed6 d13d
00000340: 076a c43d 3a15 f3bd 8348 03be 1565 9dbd
00000350: cdf5 67bc d54a 82bc 6a80 023e 62dc 2b3c
00000360: fd54 c7bc 20d2 cb3d 7323 02bd 2a21 ba3d
00000370: f3e8 0ebd 911a 23bd 1edf a4ba 63ab cfbd
00000380: d522 e03d e8b7 e73c 9319 e83d 709e 063e
00000390: f49f 2f3c 2eff 0f3c d4cf c9bc e1b3 abbd
000003a0: 6d41 763d cae0 f1bd a682 c33d eb3f 293d
000003b0: 8113 4abc 5ba5 923d 4406 e73c 3ad9 d03d
000003c0: 87b5 92bd fa25 c8bd beba 88bd 4ca4 a53d
000003d0: 3ae8 9f3d 849e 3bbd d024 c0bc 07e7 953d
000003e0: 7c64 01be e86d 5f3d 2d36 783b 5074 0e3d
000003f0: 4ade e1bd 10a9 1a3c 6b68 ee3c f6b2 cc3d
0.002939427 -0.054347713 -0.088026755 0.031569373 0.104000114 -0.0809408 -0.035355218 -0.080585
-0.019947564 -0.00967374 -0.05296033 0.07198625 0.033008374 -0.099623464 0.07892631 -0.027935589
0.0010559866 0.021892294 0.076836854 0.011980183 0.10106377 0.018441187 -0.03776493 0.092333615
0.09000335 -0.017564844 0.10502108 0.025739888 0.046873208 -0.06467932 -0.12687233 0.044684332
-0.0595518 0.028141147 -0.0844375 -0.022121506 -0.11703801 -0.070720606 -0.017965265 -0.08732222
0.094856404 0.017331667 0.07187865 0.010532546 -0.034317784 -0.1311913 -0.008685726 -0.03253287
0.01646653 -0.076881625 0.089371406 0.011578009 0.095101 0.057139315 -0.05800468 -0.023412136
-0.012381817 -0.06744099 0.0363582 0.008519847 0.12690909 0.018554138 0.09898727 0.07473046
0.048114102 -0.09770086 0.06506429 -0.013743991 -0.0071454956 -0.109235354 -0.084192544 0.06780764
0.028080642 0.065233156 -0.13373446 -0.0563442 -0.085669875 -0.094347395 0.0610373 -0.00017823781
-0.041041456 0.004120818 -0.013589699 0.03225989 -0.0921222 0.013587172 0.07766038 0.10309177
0.09614175 -0.04329361 -0.10950591 0.11216543 0.037950564 0.060138345 0.13641195 0.054281276
-0.10810762 0.087231405 -0.058133457 -0.0589808 0.086120516 -0.012935891 0.016104015 0.027984668
0.050831214 -0.0010263236 0.10899048 -0.026942546 -0.022621695 -0.0071536363 -0.06757319 -0.050298065
-0.034349386 -0.05265771 0.12564968 -0.018011939 0.11695675 0.11716899 0.024565091 0.052065432
-0.10418725 0.0021256937 0.11441492 -0.017191732 -0.08744941 -0.012612767 -0.055040788 -0.07959551
0.05007377 0.028671177 0.02739868 -0.10101878 -0.0005050346 0.11662876 0.018105468 0.109658115
-0.012475613 0.0080325315 0.06551752 -0.0041910154 0.067216866 0.11037862 0.097567305 0.04958921
0.09646538 0.09837976 -0.1299726 0.051138937 0.08509445 0.07763623 -0.07342005 0.09800119
0.021784106 0.041784067 -0.11732059 0.10228951 -0.106228486 0.045463756 0.09272096 0.057188544
-0.00940271 -0.021594334 -0.108701125 -0.059874628 -0.058612127 0.07603604 0.07156791 -0.03088975
0.053041846 -0.010277369 -0.031388376 0.07880296 -0.07598546 0.022865267 0.02188007 0.0037533932
0.021569196 0.09031276 0.04957735 -0.030677121 0.04847082 0.056956433 -0.048875716 -0.07941431
0.07809839 -0.018364094 0.099272765 0.020871868 0.028405145 0.06720992 0.09696137 -0.04508488
0.058751144 -0.044671036 0.059026033 -0.110073954 0.108392015 0.09711132 0.083262116 0.10014191
-0.035990488 -0.0117591405 -0.048743244 0.020945944 0.0084700445 -0.009189376 -0.060578097 0.10246073
0.095905356 -0.11869283 -0.1282063 -0.076852955 -0.014157725 -0.015904823 0.12744299 0.010489555
-0.024332518 0.099521875 -0.03177209 0.09088357 -0.034890126 -0.039820258 -0.0012578701 -0.10140111
0.10944144 0.028285936 0.11333003 0.13146377 0.010719288 0.008788867 -0.024635233 -0.083839186
0.06012099 -0.11810453 0.095464036 0.041320723 -0.012333752 0.07160445 0.02820123 0.10197683
-0.0716353 -0.097728685 -0.06676243 0.08087978 0.078079656 -0.04580547 -0.023455054 0.073194556
-0.12635988 0.054548174 0.0037874088 0.034778893 -0.110287264 0.009439722 0.029102525 0.099950716

net.4.bias f4 [32]
00000000: f5f5 803d 89db ec3d 88b6 113d b5d0 cfbd
00000010: 9205 91bd 3069 263d af48 a23c cf7f 053d
00000020: dac2 7fbd b5e7 a0bd 6308 85bc 8c6c 853d
00000030: 5a68 463d 9442 56bc 33b2 893d abfd b7bd
00000040: e191 9ebd ab4b 543d d974 e23d 9c80 87bd
00000050: a672 83bd b299 3b3d 5650 12bc eb1d dbbd
00000060: b509 d3bd 52b5 dfbd 095f 49bd 3c60 a73b
00000070: 2019 b5bc 713e 11bd 6887 c4bd 0a37 963d
0.062969126 0.115653105 0.035574466 -0.101472296 -0.070811406 0.04062766 0.019810049 0.03259259
-0.062441684 -0.078566946 -0.01623935 0.06514844 0.04843936 -0.013077397 0.06723442 -0.0898393
-0.07742668 0.051829975 0.11057443 -0.06616327 -0.06418352 0.045800872 -0.008930286 -0.10699066
-0.10304586 -0.10923256 -0.0491629 0.0051079076 -0.022106707 -0.03545994 -0.09596139 0.073347166

net.5.weight f4 [32]
00000000: acff 7f3f 41a1 823f 0444 803f 0a64 823f
00000010: 446b 813f 0da7 823f 221c 813f 7945 813f
00000020: 9507 803f 06eb 7f3f 7c58 803f d2a7 7e3f
00000030: f761 803f cbc1 7e3f 58ca 813f 53d6 803f
00000040: 22de 823f 92ee 803f 57d7 813f 38ad 813f
00000050: db62 7f3f 4508 7d3f 2776 7d3f 55d2 7e3f
00000060: 9a1f 7f3f 0827 803f e6b0 803f 3f8c 803f
00000070: 6133 813f bf20 7e3f d566 7e3f 87d6 803f
0.999995 1.0205461 1.0020757 1.018678 1.011086 1.020723 1.008671 1.0099326
1.0002314 0.9996799 1.0027003 0.99474823 1.0029896 0.99514455 1.0139875 1.0065407
1.022404 1.0072806 1.0143842 1.0130987 0.99760216 0.98840743 0.9900841 0.9953969
0.99657595 1.0011911 1.0053985 1.00428 1.0093805 0.99268717 0.9937566 1.0065469

net.5.bias f4 [32]
00000000: 437c 91bb ce0f 1b3c f50a 603a bbea fc3b
00000010: 116b 943b 870e 3d3c 5e21 83bc 1cf7 fd3b
00000020: b6f4 d43b 593e 193b 769a 173b bd53 273c
00000030: 4ea8 f93a 39bd 25bb b08c e23b 824b e43b
00000040: 924e 213c ec10 fd3b 9f57 133c 1eda 273c
00000050: ba8f 973b 61cc ad3b 8f7e c4bb aad1 b0bb
00000060: 13e6 223b f843 0cbc 9ccc 9a3b 82e4 b73b
00000070: 44d7 d7b9 e8b2 313b f194 18bb cfb9 643b
-0.004439862 0.009464217 0.00085465546 0.0077184117 0.004529365 0.011539108 -0.016007122 0.007750405
0.0064988984 0.002338311 0.0023132837 0.010212836 0.0019047351 -0.0025289787 0.006913744 0.006967009
0.009845393 0.0077229645 0.008993058 0.010244874 0.004625288 0.005303905 -0.0059965323 -0.0053960877
0.0024856373 -0.008561127 0.0047240984 0.005611957 -0.0004116838 0.0027114693 -0.0023282135 0.003490079

net.8.weight f4 [3, 32]
00000000: 5062 083e a362 2abc 9d06 783d 3b4a 393e
00000010: 4894 f5bd 5f3b 15bd cc02 86bd 3236 d0bd
00000020: e470 8abb 1f9d 54bd 094f 38be d386 273e
00000030: a394 2bbe acab c53d f425 363d 7d98 7a3d
00000040: 099f 383e 136a 073e bd8c 373e ef51 8c3d
00000050: d73f 99bd f242 623c 3b6d 98bd d35b f3bd
00000060: 48b6 bebb 173b 97bd 2c7c 873c f290 35bd
00000070: 6a10 ccbd d180 483c d10f e7bd 50d4 7ebd
00000080: 849b bebd 926e 1c3e a3e9 90bd cf41 15be
00000090: 58d8 94bc 3340 f23d 7189 c23c f218 2a3e
000000a0: d346 aebb 5401 5b3d e214 03be 12bf 5d3c
000000b0: 187f bd3d ad9c 3fbd 7793 82bd 1220 a1ba
000000c0: 915e 11be cd81 97bd 7b37 41be d7c4 85bd
000000d0: 5671 acbb 3144 25bd dbf0 11bd e028 afbc
000000e0: 687c 85bb e261 043e 7d76 36bc 7602 eb3d
000000f0: b661 6ebd d212 823d aa5a 0d3d cce2 dd3c
00000100: 074f e7bd 4220 c23d aec3 a83c 7a2c 0cbe
00000110: bf43 23be efe0 53bd 08c8 b3bd 7055 2cbe
00000120: 697d dabc 10fe d6bd af07 ecbd 907c 133e
00000130: 7112 873d ae23 323e 9f13 023e e4a3 0dbe
00000140: 52c1 203e 4a0d b03c 7975 633d 8271 1fbe
00000150: ddb7 b63c 5613 063e b34c 09bd 2043 2a3c
00000160: 29bd babd 7d16 c83d 01ac a4bd d44a 9a3d
00000170: 9389 eebd bc98 883c 6af9 313e 2a89 b3bd
0.13318753 -0.010399493 0.060553182 0.18094723 -0.11991173 -0.036433574 -0.06543502 -0.10166587
-0.0042248834 -0.051907655 -0.179989 0.16360025 -0.16755919 0.096518844 0.04446979 0.06118058
0.18029417 0.13224058 0.17924781 0.06851565 -0.074828796 0.013809906 -0.07442709 -0.118827485
-0.0058200695 -0.07384317 0.016538702 -0.044327684 -0.09964068 0.0122377435 -0.112823136 -0.062214196
-0.09307006 0.15276554 -0.07075813 -0.14575885 -0.018169567 0.11828651 0.023747178 0.16611078
-0.0053185015 0.053468063 -0.12800935 0.013534324 0.09252757 -0.046780277 -0.06375783 -0.0012292883
-0.1419623 -0.073978044 -0.1886882 -0.06531685 -0.005262534 -0.040348236 -0.03563009 -0.021381795
-0.0040736683 0.12927964 -0.011136648 0.11475079 -0.058198653 0.06351246 0.034510292 0.027085684
-0.1129437 0.09478809 0.02060112 -0.13688841 -0.15943812 -0.051728185 -0.08778387 -0.16829467
-0.026671128 -0.10497677 -0.11524903 0.14402986 0.06595314 0.17396423 0.12702797 -0.1383205
0.15698746 0.021490712 0.055531953 -0.15570644 0.02230447 0.13093314 -0.03352041 0.01039198
-0.09118111 0.09769914 -0.0804062 0.075338036 -0.11647334 0.016674392 0.173803 -0.08766396

net.8.bias f4 [3]
00000000: e3ce fbbd ac02 c03d 6a3a 0bbe
-0.1229532 0.093755096 -0.13596502
