agent_action_guard/emb_nn_model.pt (torch, 236885 bytes, 10 tensors)

net.0.weight f4 [128, 384]
0.034879185 0.04196177 -0.025165807 0.040816657 -0.021274269 0.018894268 -0.025158724 0.03806133
0.04119226 -0.03778594 0.037098445 0.009195335 0.045795653 0.0164175 0.011448961 -0.013435711
0.045693163 -0.0017922429 -0.0179104 0.019084163 -0.020262448 -0.0018939743 -0.025673915 0.033345975
-0.040126514 -0.015458311 -0.013762149 -0.025698856 0.005490766 -0.049454182 0.046236616 -0.06039338
0.04288506 0.009404592 -0.010350749 0.030898843 0.0045144353 0.03812949 0.010373472 -0.020233879
-0.00066466944 -0.018183384 0.015634667 0.05241027 0.032842137 -0.024544554 0.042011224 0.0018170789
0.023634937 -0.026798703 -0.058808025 -0.01673626 -0.041618768 0.034417756 0.018758733 0.030587241
0.014589513 -0.0006074586 0.032746132 -0.044734996 0.0022148925 -0.042768504 0.013119024 -0.013023976
0.02025288 -0.007331588 0.037631474 -0.04400439 -0.03836729 -0.038646508 0.029796388 0.017267708
0.04921208 -0.030547002 -0.051095236 -0.046175502 -0.02924414 0.016404161 0.02331631 0.037989233
-0.034944966 -0.035027064 0.033348963 -0.0152144395 0.0340505 -0.012289172 0.019479899 -0.04679814
-0.019042395 0.00147136 0.018969607 -0.01605852 0.015099037 0.022593046 -0.042949405 -0.03116995
0.063989304 -0.015631914 -0.019948527 -0.048171304 -0.03183967 0.00821028 -0.007908705 -0.02117584
-0.0053045126 -0.024529926 -0.051780444 -0.024675721 -0.04025845 -0.03289125 0.062237374 0.017413583
0.017146895 -0.05143882 -0.041444656 -0.012830915 -0.012142044 -0.039631423 -0.011365285 -0.019829908
0.009081039 -0.015544269 0.005200291 -0.039737586 -0.030007033 -0.027039986 0.0029295357 -0.04524973
0.03487709 -0.01977018 0.054924544 0.0074675456 -0.04709613 0.030230382 -0.003015218 -0.020458853
-0.04032387 -0.052667096 0.01104758 -0.008206772 0.019192781 -0.047266774 0.04170084 -0.028687682
0.0015718669 0.011231651 0.03135549 0.03221834 0.037260894 -0.04444868 0.022565594 -0.030049516
0.004014242 -0.032775447 0.051433615 -0.034414295 0.03422928 0.02642253 0.023342045 -0.026254678
0.029141836 0.018210953 0.0075308564 -0.04578479 0.013444626 -0.003766653 -0.024857929 0.039073028
0.009900094 -0.037137 -0.022040542 -0.008927156 0.022538695 -0.01979187 -0.015110982 -0.009842526
-0.029667199 0.0074041043 0.04807683 -0.04906403 0.008969441 0.01467956 0.006052446 -0.018425694
0.022153001 0.023272341 0.012043002 -0.012261878 -0.011193585 0.0046131336 0.0015836708 -0.016012605
0.041494977 0.053167365 -0.0031258978 -0.013377413 0.0059185266 0.00011435591 0.013840684 0.0006500911
-0.026201224 -0.017809246 0.055079468 0.026153227 0.0012868342 -0.033502713 -0.020916184 -0.04510593
-0.0043971473 0.013997122 0.034257278 0.025824398 -0.026617931 -0.04111177 -0.009675363 0.05814864
0.0038784957 -0.018951152 0.0074760336 -0.014249658 -0.03549607 0.04450621 -0.031351686 -0.010230026
-0.0477296 0.03135796 0.03756794 0.024242537 -0.035996307 -0.054901738 -0.03626018 0.03284333
0.026927292 0.045998562 0.031762414 0.016185502 0.0025817782 -0.046368606 -0.031204956 -0.04994066
0.012168016 -0.02023187 -0.005243955 -0.023937162 -0.0027805946 -0.036156338 -0.035108104 0.010158869
-0.0070035947 0.029716117 -0.026495775 -0.031138953 -0.020573998 -0.029769884 -0.026655385 -0.06127234
00000000: 7add 0e3d 1be0 2b3d 8628 cebc 5e2f 273d
00000010: 6047 aebc 27c8 9a3c ab19 cebc 32e6 1b3d
00000020: 37b9 283d 6ec5 1abd 8af4 173d 08a8 163c
00000030: 3994 3b3d fe7d 863c 6c94 3b3c 7521 5cbc
00000040: c128 3b3d b1e9 eaba d5b8 92bc 6456 9c3c
00000050: 6ffd a5bc 3b3f f8ba 1a52 d2bc ca95 083d
00000060: b35b 24bd db44 7dbc a37a 61bc 6886 d2bc
00000070: e2eb b33b 7890 4abd 9b62 3d3d 0c5f 77bd
00000080: 3fa8 2f3d b815 1a3c 3096 29bc 921f fd3c
00000090: d4ed 933b ab2d 1c3d 7ff5 293c 85c1 a5bc
000000a0: 363d 2eba 52f5 94bc 4614 803c 27ac 563d
000000b0: 7a85 063d a911 c9bc f613 2c3d 0d2b ee3a
000000c0: 0e9e c13c f488 dbbc afe0 70bd 7b1a 89bc
000000d0: 7178 2abd a2f9 0c3d eaab 993c 1892 fa3c
000000e0: da08 6f3c db3d 1fba cf20 063d 0b3c 37bd
000000f0: bb27 113b 072e 2fbd 2df1 563c 8462 55bc
00000100: 5ee9 a53c d13d f0bb 7623 1a3d f23d 34bd
00000110: 0527 1dbd cd4b 1ebd 8e17 f43c 0275 8d3c
00000120: 9b92 493d b53d fabc 3d49 51bd 8622 3dbd
00000130: 6891 efbc 0562 863c d901 bf3c 999a 1b3d
00000140: 7422 0fbd 8a78 0fbd ec98 083d fc45 79bc
00000150: 8978 0b3d 8658 49bc 4f94 9f3c 68af 3fbd
00000160: ccfe 9bbc a6da c03a 2666 9b3c 288d 83bc
00000170: f461 773c 0d15 b93c b7eb 2fbd 1f58 ffbc
00000180: d30c 833d 800e 80bc 186b a3bc 464f 45bd
00000190: 506a 02bd 6984 063c 8393 01bc f578 adbc
000001a0: 7ad1 adbb fcf2 c8bc bb17 54bd bd24 cabc
000001b0: 0be6 24bd fab8 06bd 9eec 7e3d eea6 8e3c
000001c0: a577 8c3c 83b1 52bd dfc1 29bd c238 52bc
000001d0: 6cef 46bc 8f54 22bd 7635 3abc 5572 a2bc
000001e0: a3c8 143c 64ad 7ebc 3467 aa3b e1c3 22bd
000001f0: 4fd1 f5bc f682 ddbc 74fd 3f3b c857 39bd
00000200: 48db 0e3d 13f5 a1bc 8ff8 603d 50b2 f43b
00000210: dfe7 40bd b5a5 f73c f79a 45bb 5399 a7bc
00000220: a42a 25bd 74b9 57bd e900 353c b275 06bc
00000230: 2e3a 9d3c ce9a 41bd 80ce 2a3d 6e02 ebbc
00000240: 1a07 ce3a f504 383c 9d6e 003d 61f7 033d
00000250: e19e 183d d20f 36bd 7bdb b83c 672a f6bc
00000260: e789 833b 8c3f 06bd 0eac 523d 01f6 0cbd
00000270: 0034 0c3d 1074 d83c d137 bf3c 0d14 d7bc
00000280: dcba ee3c 232f 953c 67c5 f63b d588 3bbd
00000290: d946 5c3c f3d9 76bb dba2 cbbc 0a0b 203d
000002a0: 0134 223c f81c 18bd 5e8e b4bc 3543 12bc
000002b0: 12a3 b83c 8f22 a2bc 0d94 77bc 8c42 21bc
000002c0: a008 f3bc 219e f23b 36ec 443d 5df7 48bd
000002d0: 90f4 123c 8a82 703c 9953 c63b 7bf1 96bc
000002e0: 367a b53c a3a5 be3c 0350 453c 0be6 48bc
000002f0: 4c65 37bc c529 973b 2d93 cf3a de2c 83bc
00000300: a3f6 293d 06c6 593d dddb 4cbb f02c 5bbc
00000310: 33f0 c13b 5dd2 ef38 09c4 623c e06a 2a3a
00000320: f3a3 d6bc b2e4 91bc 029b 613d 4b3f d63c
00000330: feaa a83a 243a 09bd 6b58 abbc ffc0 38bd
00000340: f215 90bb 2f54 653c 5c51 0c3d b08d d33c
00000350: d90d dabc d164 28bd 6a85 1ebc 452d 6e3d
00000360: 5c2e 7e3b 723f 9bbc 84f9 f43b 6677 69bc
00000370: 5464 11bd 254c 363d a06a 00bd d79b 27bc
00000380: 1d80 43bd 3471 003d d7e0 193d 4998 c63c
00000390: dd70 13bd a5e0 60bd 8e85 14bd ba86 063d
000003a0: a096 dc3c fd68 3c3d 4e19 023d 7597 843c
000003b0: 0d33 293b 02ed 3dbd 89a1 ffbc 948e 4cbd
000003c0: 5c5c 473c 4ebd a5bc 7cd5 abbb de17 c4bc
000003d0: a33a 36bb ab18 14bd 84cd 0fbd 6371 263c
000003e0: 697e e5bb 376f f33c ab0d d9bc 1e17 ffbc
000003f0: cd8a a8bc f9df f3bc 655c dabc b5f8 7abd

net.0.bias f4 [128]
0.008547151 0.0039047087 0.005802561 0.011433053 0.044243764 0.046622477 0.022868233 0.042273376
-0.04468724 0.027676765 -0.027254635 -0.04025711 0.00071422855 0.0035510596 0.010098599 0.027922932
0.033729184 -0.00057709246 0.021900047 -0.003605482 -0.0075934115 -0.053179882 0.0035111478 0.012666846
-0.0013626299 -0.033128794 0.024711737 -0.0036136794 0.02355629 -0.053083833 -0.038357846 -0.01852111
-0.0029741002 0.0039296243 -0.030421743 -0.0174885 0.0075848154 0.03215819 0.024648828 -0.035302017
-0.0061150375 -0.029119262 0.042444676 -0.031777937 0.007467223 0.03388438 0.02430175 0.031507723
0.036495157 0.024600688 0.047650535 0.031695202 0.0068471725 -0.041789047 0.05306745 -0.015183864
-0.043661 0.033946075 -0.037648737 0.006229189 0.012073249 -0.011928662 0.03807791 -0.0040337616
-0.053505693 -0.0058164056 -0.01735285 -0.018090963 -0.023521626 -0.03419948 -0.052541733 0.019242281
-0.04147106 -0.02066975 0.010266068 0.039051253 0.029984023 -0.017868968 0.03695378 -0.023938818
0.0006144653 -0.018040748 0.009188943 0.027251415 0.00203953 0.02445428 -0.004230409 -0.03348404
0.03348844 0.04021261 0.010267998 0.031687833 -0.034593336 -0.024462853 0.03842509 -0.037243057
0.011168052 0.027192364 0.006664266 -0.011642751 -0.0046203616 -0.015347229 -0.0022684124 -0.033333868
0.0469691 -0.030343523 0.013573173 -0.032684885 0.018344857 0.002766795 -0.027086785 0.0018201097
-0.011293376 -0.03522232 0.040929187 -0.04759054 0.0036287087 0.030263446 -0.009344509 0.01896084
-0.01821483 0.009143165 -0.0039426545 -0.020080365 -0.03875028 -0.04279892 -0.0024646986 -0.034901436
00000000: 5a09 0c3c 24e6 7f3b 6923 be3b b351 3b3c
00000010: f338 353d 36f7 3e3d 2956 bb3c d926 2d3d
00000020: f809 37bd 62ba e23c 1d45 dfbc a4e4 24bd
00000030: 113b 3b3a e5b8 683b 9874 253c a2be e43c
00000040: 9d27 0a3d 0548 17ba ba67 b33c f349 6cbb
00000050: 27d2 f8bb 26d3 59bd 491b 663b 9a88 4f3c
00000060: 469a b2ba 0fb2 07bd 4570 ca3c 7bd3 6cbb
00000070: 1ff9 c03c 6f6e 59bd 1e1d 1dbd 95b9 97bc
00000080: 1fe9 42bb 14c4 803b 0537 f9bc 0b44 8fbc
00000090: 0b8a f83b 4eb8 033d 57ec c93c d998 10bd
000000a0: a760 c8bb 858b eebc 78da 2d3d 9529 02bd
000000b0: 9baf f43b 59ca 0a3d 7714 c73c 3e0e 013d
000000c0: f27b 153d 6287 c93c 352d 433d d4d2 013d
000000d0: 3f5e e03b fe2a 2bbd 415d 593d bec5 78bc
000000e0: e0d5 32bd 0a0b 0b3d 9035 1abd 3a1e cc3b
000000f0: e0ce 453c 6f70 43bc 95f7 1b3d a52d 84bb
00000100: c928 5bbd 8c97 bebb 9027 8ebc 8033 94bc
00000110: 6db0 c0bc c114 0cbd 0036 57bd fda1 9d3c
00000120: 8fdd 29bd 9c53 a9bc 0333 283c 35f4 1f3d
00000130: 0ea1 f53c f161 92bc d95c 173d 571b c4bc
00000140: 1114 213a 31ca 93bc 388d 163c 5c3e df3c
00000150: a3a9 053b 5854 c83c 3e9f 8abb 9026 09bd
00000160: 2d2b 093d fab5 243d 1b3b 283c 1acb 013d
00000170: beb1 0dbd 5266 c8bc a163 1d3d 2d8c 18bd
00000180: 35fa 363c 85c2 de3c ea5f da3b 3dc1 3ebc
00000190: 6766 97bb f272 7bbc a5a9 14bb 1889 08bd
000001a0: ac62 403d fb92 f8bc 0462 5e3c 96e0 05bd
000001b0: f447 963c 1e53 353b 1be5 ddbc bf90 ee3a
000001c0: da07 39bc 4845 10bd 5da5 273d 4cee 42bd
000001d0: a1cf 6d3b 0ceb f73c b619 19bc c353 9b3c
000001e0: 4437 95bc 37cd 153c 6231 81bb 947f a4bc
000001f0: 9db8 1ebd ec4d 2fbd c886 21bb cff4 0ebd

net.1.weight f4 [128]
0.9961632 1.0041409 0.9986446 0.9993321 1.0011195 0.99529123 0.9959388 0.9917028
1.0021031 1.0031596 0.9933575 1.0139503 0.99298 1.0035957 1.0113858 0.99746364
1.0043869 1.0087258 0.99796325 1.0047827 0.99927896 0.99150896 1.0065525 1.0034344
0.997412 1.0052316 1.0049078 0.9953853 0.99204123 1.0080523 1.0082135 0.9914296
1.0014809 1.0059888 0.9961878 1.0050701 0.9909953 0.9919555 1.0017896 1.0115707
0.9937396 1.0054078 0.993511 0.9968879 0.9917082 0.99469084 0.99732393 0.9963699
0.99268264 1.0041884 1.0002093 1.0080591 0.99913657 0.99944353 1.0039947 0.9997814
1.013141 0.99926746 1.0018357 0.9899717 0.99103385 0.9917187 0.9974915 1.0010711
1.0010597 1.0017915 1.0079722 0.9983301 1.0059742 1.0029533 0.9966669 1.0006301
1.010382 1.000703 1.005349 0.99326015 0.99983543 1.0070609 1.0067599 0.9908593
1.0012411 1.0024348 1.0016123 1.01164 1.0047578 0.9990877 1.0093212 0.99925303
1.0013019 1.0037489 0.99746317 1.002589 0.9972142 1.0108941 1.006067 1.0061193
1.0166681 0.9862473 1.0006543 1.0066826 0.99259335 1.0097901 1.0068157 0.9957122
0.9980824 0.9897916 0.99349535 1.0009047 1.0084249 1.0022976 1.0022186 0.99960726
0.98674893 1.0010457 1.0054569 1.0037864 1.0029287 1.010408 0.9945429 0.99798864
1.0020252 1.0120839 0.99931514 0.9943893 1.0036688 1.0031611 1.0128249 1.0028064
00000000: 8d04 7f3f b087 803f 2ca7 7f3f 3ad4 7f3f
00000010: af24 803f 68cb 7e3f d8f5 7e3f 3ce0 7d3f
00000020: ea44 803f 8967 803f ad4c 7e3f 20c9 813f
00000030: f033 7e3f d375 803f 1775 813f c759 7f3f
00000040: c08f 803f ed1d 813f 857a 7f3f b89c 803f
00000050: bfd0 7f3f 88d3 7d3f b6d6 803f 8a70 803f
00000060: 6556 7f3f 6eab 803f d2a0 803f 92d1 7e3f
00000070: 6af6 7d3f dc07 813f 240d 813f 55ce 7d3f
00000080: 8730 803f 3ec4 803f 2a06 7f3f 23a6 803f
00000090: deb1 7d3f ccf0 7d3f a43a 803f 267b 813f
000000a0: b865 7e3f 34b1 803f bd56 7e3f 0c34 7f3f
000000b0: 97e0 7d3f 0fa4 7e3f 9f50 7f3f 1912 7f3f
000000c0: 7320 7e3f 3f89 803f dc06 803f 1508 813f
000000d0: 6ac7 7f3f 88db 7f3f e682 803f adf1 7f3f
000000e0: 9bae 813f fecf 7f3f 273c 803f c96e 7d3f
000000f0: 65b4 7d3f 47e1 7d3f 9a5b 7f3f 1923 803f
00000100: b922 803f b43a 803f 3c05 813f 9092 7f3f
00000110: c3c3 803f c660 803f 9025 7f3f a614 803f
00000120: 3354 813f 0917 803f 47af 803f 4c46 7e3f
00000130: 37f5 7f3f 5fe7 803f 82dd 803f f5a8 7d3f
00000140: ab28 803f c94f 803f d534 803f 6b7d 813f
00000150: e79b 803f 36c4 7f3f 7031 813f 0ccf 7f3f
00000160: a92a 803f d87a 803f bf59 7f3f d654 803f
00000170: 6e49 7f3f fa64 813f cec6 803f 84c8 803f
00000180: 2e22 823f b47a 7c3f 7115 803f fada 803f
00000190: 991a 7e3f cd40 813f 56df 803f ffe6 7e3f
000001a0: 5482 7f3f fb62 7d3f b655 7e3f a51d 803f
000001b0: 1114 813f 4a4b 803f b348 803f 43e6 7f3f
000001c0: 949b 7c3f 4422 803f d0b2 803f 137c 803f
000001d0: f85f 803f 0d55 813f 5d9a 7e3f 2f7c 7f3f
000001e0: 5d42 803f f78b 813f 1ed3 7f3f 4c90 7e3f
000001f0: 3878 803f 9567 803f 3fa4 813f f65b 803f

net.1.bias f4 [128]
0.0012621699 0.0019441413 -0.005174647 -0.0007008345 0.0002176732 -0.0018314124 -0.0012585359 -0.0056923875
-0.004698118 -0.000788068 -0.007876148 -0.0054636393 0.0020267528 0.0030256733 0.002743371 -0.00045229416
-0.0010521065 0.009471298 -0.002725455 0.0014558609 0.0008086081 -0.011619505 -0.000840821 0.0020259258
-0.0040368303 -0.009529073 0.002323389 -0.0007727865 -0.010458714 -0.011474727 0.007879558 0.0022978073
0.00042583037 -0.0020319119 0.0015313976 -0.0004830867 -0.0059214407 -0.0059385467 -0.002583411 0.007049185
-0.0062621213 -0.004874073 -0.0060319323 -0.00043036242 -0.003089573 -0.0031531584 -0.0039288085 -0.0045652958
-0.004779806 0.0027127122 -0.0027938646 0.0022093032 -0.0025522318 0.0051216073 0.0014286707 0.007863082
-0.01295498 0.0006021595 -0.0042799856 -0.009823873 -0.0053652367 0.008405667 -0.0028651617 -0.003180295
-0.009019973 0.0059245788 0.001318257 -0.0023230615 0.00041896253 -0.006029766 -0.0100484565 -0.004214588
-0.00906893 -0.0018928024 0.0005174062 -0.007558681 0.00051655667 0.0023545823 0.002689916 -0.0036421402
-0.00054954167 -0.0018140742 -0.0034639703 0.005317189 0.0023923193 -0.0038337174 0.0007869194 -0.00928236
-0.001133142 0.0018068886 -0.0039683464 -0.0018969136 0.006950153 0.0026463808 -0.0013082777 -0.004379899
0.005643074 -0.008076486 -0.0023743312 -0.0016412138 -0.0046438077 -0.013229597 0.0046027503 0.011019561
-0.002595965 -0.0033839925 -0.0011116265 -0.0007015068 0.003725496 -0.0017943772 -0.0026935562 -0.0045792656
-0.0053752386 -0.0032106545 0.005354459 -0.005500498 -0.0025033788 0.0065459423 -0.012330295 -0.0016894487
-0.013278577 0.0068100365 -0.00030380636 0.004179588 -0.002834285 -0.0035754498 0.006512247 -0.0028071566
00000000: 656f a53a 8fd2 fe3a 1690 a9bb 35b8 37ba
00000010: 343f 6439 010c f0ba 75f5 a4ba 3587 babb
00000020: acf2 99bb 5996 4eba f60a 01bc 5408 b3bb
00000030: 45d3 043b 604a 463b 21ca 333b e521 edb9
00000040: d6e6 89ba 812d 1b3c 8c9d 32bb 96d2 be3a
00000050: c5f8 533a bc5f 3ebc 8b6a 5cba 65c5 043b
00000060: 6347 84bb d41f 1cbc 0044 183b d394 4aba
00000070: 075b 2bbc 7e00 3cbc 4319 013c cf96 163b
00000080: fc41 df39 d329 05bb 2db9 c83a cd46 fdb9
00000090: a508 c2bb 2498 c2bb 724e 29bb dafc e63b
000000a0: 7b32 cdbb b0b6 9fbb 84a7 c5bb 44a2 e1b9
000000b0: 6f7a 4abb 38a5 4ebb 3cbd 80bb 7a98 95bb
000000c0: eb9f 9cbb c2c7 313b 4519 37bb f5c9 103b
000000d0: 5843 27bb 28d3 a73b 3c42 bb3a 28d4 003c
000000e0: 2041 54bc 3dda 1d3a 1f3f 8cbb 4ff4 20bc
000000f0: dece afbb ecb7 093c 70c5 3bbb 7f6c 50bb
00000100: 82c8 13bc f822 c23b 5dc9 ac3a 813e 18bb
00000110: 33a8 db39 5895 c5bb 48a2 24bc 871a 8abb
00000120: d995 14bc e917 f8ba 8ba2 073a d0ae f7bb
00000130: 8869 073a 564f 1a3b 4d49 303b f9b0 6ebb
00000140: 1e0f 10ba 3bc6 edba c703 63bb d03b ae3b
00000150: 75c8 1c3b 1b3f 7bbb 4449 4e3a 0a15 18bc
00000160: f085 94ba 1fd5 ec3a e708 82bb dca1 f8ba
00000170: 1cbe e33b e76e 2d3b 847a abba 4185 8fbb
00000180: 89e9 b83b 3d53 04bc ab9a 1bbb ff1d d7ba
00000190: 152b 98bb f4c0 58bc abd2 963b 648b 343c
000001a0: 1121 2abb f9c5 5dbb ffb3 91ba 53e5 37ba
000001b0: 7327 743b 4f31 ebba 6086 30bb aa0d 96bb
000001c0: c522 b0bb d869 52bb 7574 af3b 863d b4bb
000001d0: ba0f 24bb 587f d63b 0105 4abc 7e70 ddba
000001e0: 638e 59bc ba26 df3b 3348 9fb9 edf4 883b
000001f0: 69bf 39bb 1852 6abb b064 d53b 46f8 37bb

net.4.weight f4 [64, 128]
0.022366587 -0.011170176 -0.05444452 -0.050825793 -0.011953597 -0.05491886 -0.039900873 0.010600557
-0.01328826 -0.025085697 -0.073300645 0.06823139 -0.007345301 0.05929299 0.029399797 0.03133987
0.057999242 -0.0845931 0.07392251 -0.04950577 -0.0372113 -0.059344 0.0019227312 0.018738868
-0.028824823 0.091529675 0.041866466 0.01452232 -0.043759283 0.06786561 -0.063175194 -0.05710358
0.0041715456 -0.038935818 0.09525934 -0.062049013 0.060907442 0.07703758 0.071522325 0.063099414
0.010364817 -0.022039961 0.020654526 -0.020210758 -0.010180483 0.07713198 0.0820539 0.06830669
0.03467494 0.019302886 0.01410363 -0.0006976178 -0.09221466 -0.057221405 0.008526791 -0.021365168
-0.072450176 -0.061225127 -0.05693413 0.0279032 -0.01117305 0.03616574 0.010661942 0.048122555
0.049483474 -0.0013824665 -0.023513915 0.032809526 0.029425465 0.03378185 -0.0118168425 0.016139254
-0.06749038 0.0525742 0.061822046 0.067842655 -0.08387469 0.026385587 0.06820747 -0.030635538
0.0068520047 0.01882948 0.07123379 0.03363647 -0.044206735 -0.087512694 0.0101130055 0.04968052
0.08154383 0.09455053 -0.030109124 -0.09280109 0.063907534 -0.056929454 0.050580844 0.046440043
-0.047492158 0.0035097965 0.061387666 -0.0053854813 0.02150971 0.022837145 0.0868012 0.09104079
-0.0017679301 0.05675239 0.06605794 -0.025055293 -0.051369477 0.046518665 0.02895986 -0.034961235
0.07681526 -0.060474873 0.068501174 -0.030457344 -0.023485916 -0.0075736707 0.03701479 0.066825956
0.013058855 -0.034923017 0.056651983 0.052853506 0.0693164 -0.009405277 0.007378171 0.0023810496
0.0061596483 0.027150782 0.075778 -0.043612793 -0.08688414 0.002928144 -0.022648009 -0.044341713
0.030733317 0.072056554 0.060280997 -0.015740074 0.0659138 -0.015388452 -0.07055341 -0.037678845
-0.071649484 0.026030079 0.057908133 0.026387263 -0.015125043 0.03448012 0.002942484 -0.08138556
0.08689588 0.013072964 -0.074073985 0.011813378 0.079491206 0.0068269237 -0.0005930249 -0.034220096
-0.036143944 -0.053123627 0.011996422 -0.0809991 -0.045789905 0.0775374 0.013730599 -0.01565427
-0.001147343 -0.014627398 0.00023276232 -0.076326236 0.08674984 -0.0692733 0.067839146 -0.06286121
0.014209649 -0.07372303 -0.012095088 0.041383114 -0.08821484 -0.04875364 -0.060490683 -0.04283881
0.06090662 0.06789927 -0.06245109 0.05468518 0.008732888 -0.080978796 -0.062250603 -0.008531559
-0.017047066 -0.041903377 -0.01166653 -0.05304175 0.04985168 -0.07915298 0.032050245 -0.03854702
0.031190377 0.06707965 0.03781712 0.023005895 0.057497006 -0.06917894 0.022479896 0.05855482
0.04515618 -0.019851722 -0.066106156 0.077356994 -0.012059936 0.0067059402 -0.025268532 0.0738877
-0.0312128 -0.0077382945 0.046285607 -0.07143666 -0.03100408 0.03396744 0.052080113 -0.027481273
0.036387306 -0.048861362 -0.077206135 -0.047166836 -0.07096291 0.08005117 -0.072085455 0.025767285
-0.0258704 -0.021830173 0.0026125156 0.040618572 0.03812422 0.0751687 -0.012673064 0.054017927
0.017616121 -0.039646987 -0.07567879 -0.08682243 0.054006502 0.08489278 0.070843905 -0.04043968
0.05371185 0.05286586 0.0666705 -0.05585526 0.04558643 -0.06956566 0.023947556 0.0004156064
00000000: 223a b73c 1d03 37bc 3801 5fbd b52e 50bd
00000010: 05d9 43bc 99f2 60bd 196f 23bd f5ad 2d3c
00000020: 01b7 59bc 8580 cdbc a61e 96bd e6bc 8b3d
00000030: dab0 f0bb 35dd 723d d8d7 f03c 3c5e 003d
00000040: 9d90 6d3d 263f adbd af64 973d 90c6 4abd
00000050: e06a 18bd b212 73bd 2704 fc3a 4182 993c
00000060: 0922 ecbc e973 bb3d 2c7c 2b3d 06ef 6d3c
00000070: ef3c 33bd 20fd 8a3d ff61 81bd 72e5 69bd
00000080: 76b1 883b 2a7b 1fbd 5417 c33d 1b27 7ebd
00000090: 157a 793d e1c5 9d3d 4c7a 923d 443a 813d
000000a0: 32d1 293c 268d b4bc ae33 a93c 0891 a5bc
000000b0: 0acc 26bc 5ff7 9d3d e00b a83d 61e4 8b3d
000000c0: 4f07 0e3d 1621 9e3c e912 673c 57e0 36ba
000000d0: 0adb bcbd fe60 6abd f4b3 0b3c 0106 afbc
000000e0: c260 94bd 33c7 7abd c333 69bd 4095 e43c
000000f0: 2b0f 37bc 8722 143d 6daf 2e3c 281c 453d
00000100: 2faf 4a3d e133 b5ba 41a0 c0bc 4863 063d
00000110: ac0d f13c d65e 0a3d 6e9b 41bc 7836 843c
00000120: 6538 8abd 0b58 573d 1d39 7d3d 17f1 8a3d
00000130: 7ec6 abbd 9626 d83c 5cb0 8b3d 61f7 fabc
00000140: c886 e03b 4840 9a3c 05e3 913d 65c6 093d
00000150: 1f12 35bd db39 b3bd 05b1 253c cd7d 4b3d
00000160: 7400 a73d b5a3 c13d 69a7 f6bc 7f0e bebd
00000170: f4e1 823d dc2e 69bd dc2d 4f3d ea37 3e3d
00000180: 2387 42bd 9d04 663b a271 7b3d b178 b0bb
00000190: 2235 b03c f714 bb3c d4c4 b13d 9873 ba3d
000001a0: e4b9 e7ba 3275 683d 6349 873d c240 cdbc
000001b0: cd68 52bd 5b8a 3e3d 3a3d ed3c 8333 0fbd
000001c0: 5251 9d3d 80b4 77bd 584a 8c3d ae81 f9bc
000001d0: 8965 c0bc 8e2c f8bb d29c 173d 0cdc 883d
000001e0: cff4 553c 700b 0fbd e90b 683d eb7c 583d
000001f0: c2f5 8d3d 9718 1abc 96c4 f13b 620b 1c3b
00000200: e0d6 c93b 516b de3c 7f31 9b3d 54a3 32bd
00000210: 50f0 b1bd 1be6 3f3b 5188 b9bc a89f 35bd
00000220: 70c4 fb3c 6392 933d 35e9 763d 54f1 80bc
00000230: d0fd 863d d91f 7cbc 4e7e 90bd 2255 1abd
00000240: f7bc 92bd 083d d53c 1431 6d3d 1a2a d83c
00000250: 07cf 77bc 073b 0d3d b1d6 403b 79ad a6bd
00000260: 78f6 b13d fc2f 563c 1ab4 97bd e68c 413c
00000270: 49cc a23d 63b4 df3b 3a75 1bba 5f2a 0cbd
00000280: ac0b 14bd 2998 59bd a48c 443c dbe2 a5bd
00000290: 328e 3bbd eecb 9e3d 4ef6 603c 623d 80bc
000002a0: 7162 96ba c1a7 6fbc a911 7439 ee50 9cbd
000002b0: e6a9 b13d 29df 8dbd 40ef 8a3d 61bd 80bd
000002c0: 96cf 683c 1afc 96bd 7a2a 46bc 5781 293d
000002d0: fba9 b4bd e6b1 47bd 14c5 77bd bf77 2fbd
000002e0: 3879 793d c60e 8b3d b7cc 7fbd 91fd 5f3d
000002f0: 6314 0f3c 36d8 a5bd 7dfa 7ebd f4c7 0bbc
00000300: 4aa6 8bbc e0a2 2bbd f924 3fbc 4e42 59bd
00000310: 4631 4c3d f51a a2bd 1e47 033d 7be3 1dbd
00000320: f682 ff3c 0e61 893d 20e6 1a3d dc76 bc3c
00000330: fb81 6b3d b0ad 8dbd c227 b83c 2ed7 6f3d
00000340: b0f5 383d 14a0 a2bc aa62 87bd 586d 9e3d
00000350: 0a97 45bc 81bd db3b f4ff cebc 6f52 973d
00000360: fcb1 ffbc 8591 fdbb fa95 3d3d 624d 92bd
00000370: 45fc fdbc 7121 0b3d f551 553d 6820 e1bc
00000380: db0a 153d da22 48bd 401e 9ebd 0332 41bd
00000390: 0155 91bd def1 a33d 8aa1 93bd ea15 d33c
000003a0: 29ee d3bc 31d5 b2bc bd36 2b3b a95f 263d
000003b0: 2428 1c3d 0cf2 993d afa2 4fbc e741 5d3d
000003c0: af4f 903c e164 22bd 7bfd 9abd f5cf b1bd
000003d0: ec35 5d3d 44dc ad3d 9c16 913d 14a4 25bd
000003e0: f500 5c3d df89 583d 8b8a 883d 7cc8 64bd
000003f0: d6b8 3a3d 7178 8ebd aa2d c43c bfe5 d939

net.4.bias f4 [64]
-0.06716365 -0.021393504 -0.0878456 0.04556331 -0.059630625 0.024904506 -0.070964985 0.031327017
-0.0674775 0.030821009 -0.0035128088 0.07587095 0.07351199 0.0113858385 0.053568773 0.016088367
-0.051306266 0.024060687 -0.04172709 0.0054046144 0.016010076 0.02948463 0.07830077 0.015173093
0.032725047 0.09350224 0.078614205 0.014287515 -0.063053325 -0.03292951 0.08707638 -0.037990272
-0.027854733 0.07127939 0.07101776 0.013470009 -0.032663114 -0.050780572 0.0879316 -0.053922713
0.0041157617 0.061551668 -0.008675598 0.037945837 0.0062869405 -0.03926941 -0.07667179 0.057591297
0.051718466 -0.026333015 -0.011130344 -0.004369122 0.0007220529 0.009339165 0.0175703 -0.005882618
-0.03445463 0.069045864 -0.047533747 -0.017798955 0.00892304 0.041838106 -0.063075446 0.0027416951
00000000: 198d 89bd 6e41 afbc 65e8 b3bd 98a0 3a3d
00000010: 3e3f 74bd 8904 cc3c 1756 91bd c250 003d
00000020: a531 8abd 577c fc3c 2737 66bb 3b62 9b3d
00000030: 748d 963d ab8b 3a3c ee6a 5b3d c0cb 833c
00000040: 8526 52bd eb1a c53c 06ea 2abd 3119 b13b
00000050: 9027 833c c089 f13c 275c a03d 9198 783c
00000060: b30a 063d 1a7e bf3d 7c00 a13d 2e16 6a3c
00000070: 1a22 81bd 18e1 06bd 1a55 b23d b09b 1bbd
00000080: 9c2f e4bc eefa 913d c271 913d 50b1 5c3c
00000090: c2c9 05bd 4aff 4fbd 7c15 b43d 10de 5cbd
000000a0: 83dd 863b 9a1d 7c3d 1824 0ebc 186d 1b3d
000000b0: ae02 ce3b f6d8 20bd 1906 9dbd dae4 6b3d
000000c0: bed6 533d 56b8 d7bc 0c5c 36bc da2a 8fbb
000000d0: 2648 3d3a 4c03 193c 97ef 8f3c fac2 c0bb
000000e0: 4c20 0dbd eb67 8d3d bfb2 42bd 1dcf 91bc
000000f0: f131 123c 6f5e 2b3d b32d 81bd 03ae 333b

net.5.weight f4 [64]
1.0008842 1.0043137 1.0114267 0.9919751 0.99869657 0.99484307 0.99645656 1.007606
0.997932 1.0152283 0.9983713 1.0005267 1.0018241 0.9944067 0.9989987 1.0017138
1.0019518 1.0028554 0.9989095 1.0064722 1.0084052 0.98658067 0.9940904 1.012072
1.0021185 1.0134088 0.99835974 1.0022382 1.0150636 1.002951 1.0217878 1.0048612
1.0030878 0.99636894 1.0006292 1.0062141 1.0023484 0.99758095 1.0099269 0.99791646
1.0019249 0.99896055 0.9885034 0.99681973 1.002838 1.0063133 0.9945627 1.0053049
0.99813217 0.99563956 0.98786455 1.0043206 1.0033407 1.0198108 1.0007373 1.0095769
1.0092145 0.9947616 0.9939342 0.99304026 1.0010349 1.0029848 0.9986974 0.9959888
00000000: f91c 803f 5a8d 803f 6e76 813f 15f2 7d3f
00000010: 94aa 7f3f 09ae 7e3f c717 7f3f 3cf9 803f
00000020: 7978 7f3f 00f3 813f 4395 7f3f 4211 803f
00000030: c63b 803f 7091 7e3f 61be 7f3f 2838 803f
00000040: f53f 803f 915d 803f 88b8 7f3f 15d4 803f
00000050: 6c13 813f 8d90 7c3f b57c 7e3f 938b 813f
00000060: 6b45 803f 61b7 813f 8194 7f3f 5749 803f
00000070: 9bed 813f b360 803f f1c9 823f 4b9f 803f
00000080: 2e65 803f 0912 7f3f 9e14 803f a0cb 803f
00000090: f44c 803f 7761 7f3f 4945 813f 7477 7f3f
000000a0: 133f 803f e1bb 7f3f 8f0e 7d3f 942f 7f3f
000000b0: ff5c 803f e0ce 803f a99b 7e3f d5ad 803f
000000c0: 9785 7f3f 3ce2 7e3f b1e4 7c3f 948d 803f
000000d0: 786d 803f 2989 823f 2918 803f d139 813f
000000e0: f12d 813f b2a8 7e3f 7972 7e3f e337 7e3f
000000f0: e921 803f ce61 803f a2aa 7f3f 1ff9 7e3f

net.5.bias f4 [64]
-0.0034064741 -0.0035805032 0.0029032696 -0.0055619646 0.00037385113 0.0016727975 -0.0023313893 -0.00042430102
-0.0033635602 0.005676792 -0.0009479034 0.003309082 0.0016633634 0.0006529764 0.0063428218 -0.0014297472
-0.0015864694 0.0021962235 -0.0011363253 0.00095075375 0.004411859 -0.0010302606 0.012474248 0.0024248022
-0.0023919514 0.00948837 -0.007846407 0.0042033712 0.01732417 0.0032958298 0.01848755 0.0020900408
0.0022186514 -0.0022973348 -0.0015950187 0.003354275 -0.0019542205 0.002846422 0.003670336 0.0030440015
0.0013073699 -0.0031501185 -0.0068756975 0.002580315 -0.00034926116 0.0032357168 -0.0033829804 0.0025095085
0.00068357005 -0.012304146 -0.007085853 0.0006887604 0.002036246 0.013215733 0.0055329795 0.010783738
0.005432917 -0.006981393 -0.0032595838 0.0006759155 0.0018157511 0.0009634855 -0.002273533 -0.006092493
00000000: 273f 5fbb e0a6 6abb c844 3e3b 2441 b6bb
00000010: 7301 c439 c541 db3a 39ca 18bb b874 deb9
00000020: 2d6f 5cbb 6204 ba3b b87c 78ba 2fdd 583b
00000030: 3705 da3a 812c 2b3a 72d7 cf3b 5b66 bbba
00000040: 14f1 cfba 84ee 0f3b c0f0 94ba 013c 793a
00000050: 5b91 903b cf09 87ba ca60 4c3c 6ee9 1e3b
00000060: 49c2 1cbb 1c75 1b3c 378e 00bc 6fbc 893b
00000070: 6beb 8d3c d9fe 573b 3473 973c 11f9 083b
00000080: cb66 113b e28e 16bb f20f d1ba 65d3 5b3b
00000090: 6112 00bb 098b 3a3b 058a 703b df7d 473b
000000a0: 0e5c ab3a 3872 4ebb 884d e1bb 811a 293b
000000b0: 0a1d b7b9 520e 543b feb4 5dbb 9176 243b
000000c0: 9c31 333a 5497 49bc 7130 e8bb ee8d 343a
000000d0: 8a72 053b cd86 583c ff4d b53b 47ae 303c
000000e0: 9c06 b23b 2bc4 e4bb be9e 55bb ec2f 313a
000000f0: 7ffe ed3a 6b92 7c3a 8eff 14bb 89a3 c7bb

net.8.weight f4 [3, 64]
0.02033449 0.043302454 0.103052124 -0.10633099 -0.11381028 -0.09406027 -0.057680488 -0.02544053
0.0009064733 -0.032949194 0.11760512 0.121388055 0.04923927 0.021046845 -0.013103188 -0.11283769
-0.007497012 -0.0042851553 -0.06993918 -0.11824769 -0.09840149 0.10900053 0.119673416 0.09598482
0.10213013 0.09366273 0.114551865 0.0547323 0.046806633 0.06876028 -0.025299458 0.08036125
0.054628365 0.082792506 -0.05158953 -0.026085455 0.04550662 -0.13238642 0.057224248 -0.10008283
-0.109705135 -0.08943859 -0.012153113 -0.09909454 -0.034502354 -0.0873786 0.103520006 0.059557762
-0.11039185 -0.07984255 0.04632055 -0.11845833 -0.09350852 0.13587582 0.06416629 0.094981454
0.05793866 -0.10746401 0.0023904303 0.03409629 0.027009385 -0.029027801 0.05865466 -0.0067929635
0.08034635 -0.021660257 -0.09642613 0.07329902 -0.07283773 0.10353574 0.07475848 0.11325968
0.06088342 0.0573587 -0.068711475 0.010866033 -0.012302453 -0.0698916 -0.010380478 0.03027174
-0.015975306 -0.0712614 -0.09571009 -0.018967068 0.07794619 0.09702771 0.035469707 -0.019130409
0.11369053 -0.12953384 -0.053171135 -0.015599719 -0.065655746 -0.07859621 -0.12861893 -0.11622069
0.048823938 0.12660901 0.07525753 0.12374894 0.11784729 -0.109661974 -0.049189508 -0.12816118
0.103429265 0.044408035 0.10103851 0.03127237 0.11572192 -0.03736247 0.09662472 0.046596773
-0.019426595 -0.050623715 0.050242703 0.07424822 0.0050799623 -0.12452775 0.0122673735 0.038273618
-0.1331055 -0.014492559 -0.004962291 -0.038301446 -0.08115604 -0.10892604 -0.028779015 -0.04088131
-0.017669445 -0.018783357 0.08287212 0.049224094 0.11312527 0.049349353 -0.0037533753 -0.08053847
0.033139605 -0.12133109 -0.068810716 -0.022069784 -0.08434341 -0.09421937 -0.11419471 -0.11076469
-0.07988066 0.08365696 0.027276147 0.08397168 -0.113880515 0.096901335 0.08025388 0.028293947
-0.073836155 -0.018413888 0.048674617 -0.043597963 -0.030384457 0.12123664 -0.043911587 -0.04092997
-0.08431631 -0.054716695 -0.05331926 -0.12697028 0.06606098 -0.085966766 0.0850083 -0.02188844
0.11945141 -0.01881602 0.10193611 -0.09068353 0.0038879316 -0.019109648 0.082247734 0.028945424
0.059177324 -0.038415488 0.075203426 0.112001255 0.09074216 -0.07333859 -0.015624636 -0.10953769
0.026654564 0.03794486 0.11458601 -0.09728287 0.034610722 0.030530345 -0.0640239 0.011641911
00000000: 8494 a63c ea5d 313d fe0c d33d 10c4 d9bd
00000010: 5d15 e9bd aca2 c0bd 6042 6cbd a968 d0bc
00000020: 65a0 6d3a bcf5 06bd f4da f03d 4d9a f83d
00000030: 1eaf 493d 6f6a ac3c c1ae 56bc 7217 e7bd
00000040: 7fa9 f5bb 7d6a 8cbb 463c 8fbd d82b f2bd
00000050: b886 c9bd ab3b df3d 5617 f53d b093 c43d
00000060: 9a29 d13d 3fd2 bf3d 2b9a ea3d fa2e 603d
00000070: 50b8 3f3d 31d2 8c3d cf40 cfbc 7094 a43d
00000080: fec1 5f3d 1e8f a93d 8b4f 53bd 2ab1 d5bc
00000090: 2665 3a3d 4e90 07be f963 6a3d 3af8 ccbd
000000a0: 16ad e0bd 942b b7bd da1d 47bc 14f2 cabd
000000b0: 5752 0dbd 8df3 b2bd 4c02 d43d d7f2 733d
000000c0: 1f15 e2bd 7e84 a3bd 9eba 3d3d 489a f2bd
000000d0: 6581 bfbd 0823 0b3e 9e69 833d a385 c23d
000000e0: 1751 6d3d 1716 dcbd c4a8 1c3b 8da8 0b3d
000000f0: c942 dd3c b6cb edbc de3f 703d 8297 debb
00000100: a18c a43d da70 b1bc 107b c5bd cc1d 963d
00000110: f32b 95bd 8c0a d43d f91a 993d b1f4 e73d
00000120: e560 793d f5f0 6a3d 9ab8 8cbd 7207 323c
00000130: 3a90 49bc 5423 8fbd e112 2abc 71fc f73c
00000140: a5de 82bc 7ff1 91bd a703 c4bd d360 9bbc
00000150: 41a2 9f3d 77b6 c63d af48 113d 60b7 9cbc
00000160: 95d6 e83d 85a4 04be fac9 59bd f795 7fbc
00000170: 8576 86bd 0df7 a0bd aeb4 03be 1d05 eebd
00000180: 9cfb 473d cba5 013e 9f20 9a3d 1670 fd3d
00000190: ec59 f13d 7596 e0bd f07a 49bd af3c 03be
000001a0: b9d2 d33d 33e5 353d 47ed ce3d 7517 003d
000001b0: 9dff ec3d 6409 19bd 2ee3 c53d 42dc 3e3d
000001c0: 8624 9fbc d05a 4fbd 4bcb 4d3d 730f 983d
000001d0: d075 a63b 6808 ffbd 18fd 483c ccc4 1c3d
000001e0: cf4c 08be 3372 6dbc b79a a2bb fae1 1cbd
000001f0: 2335 a6bd 9e14 dfbd f8c1 ebbc 2973 27bd
00000200: 83bf 90bc 8edf 99bc dcb8 a93d 349f 493d
00000210: 39ae e73d 8c22 4a3d 30fb 75bb 5af1 a4bd
00000220: 65bd 073d 6f7c f8bd a2ec 8cbd b1cb b4bc
00000230: 3dbc acbd 16f6 c0bd ebde e9bd 99d8 e2bd
00000240: 7998 a3bd 5754 ab3d 3a72 df3c 58f9 ab3d
00000250: 303a e9bd 3574 c63d 255c a43d b5c8 e73c
00000260: 6937 97bd b9d8 96bc 095f 473d c793 32bd
00000270: d3e8 f8bc ea4a f83d a3dc 33bd 2fa6 27bd
00000280: 08ae acbd 9d1e 60bd 4c65 5abd 7f04 02be
00000290: fb4a 873d 580f b0bd d518 ae3d 634f b3bc
000002a0: f1a2 f43d 0e24 9abc e1c3 d03d 49b8 b9bd
000002b0: abcc 7e3b d68b 9cbc 8071 a83d f41e ed3c
000002c0: ec63 723d 8f59 1dbd 4104 9a3d ea60 e53d
000002d0: 07d7 b93d 8b32 96bd 79fe 7fbc 4c55 e0bd
000002e0: ac5a da3c 126c 1b3d 12ac ea3d 3e3c c7bd
000002f0: f9c3 0d3d c61a fa3c f61e 83bd b7bd 3e3c

net.8.bias f4 [3]
-0.0713953 0.027776722 -0.102041304
00000000: b337 92bd 028c e33c 08fb d0bd
